rocket-lander_with_acceleration_over_approximation/network_repairing/models/acasxu_epoch224.pt (torch, 8144 bytes, 4 tensors)

0.bias f8 [16]
00000000: 1001 0c56 a756 a6bf ca4a 6646 f47e d9bf
00000010: 7b4f b91b 3660 61bf ab75 2ada 0154 ea3f
00000020: 24e8 8d81 16c4 dcbf 654e c028 1532 d23f
00000030: 5cc1 3e20 7b4a c73f 224c 6185 9256 e63f
00000040: a483 bf08 6e00 d43f fdea b9a5 bb60 eabf
00000050: 18eb 0334 eca3 d73f 45f5 0d42 fd0a e6bf
00000060: ba52 abe5 f15c e03f 5b55 828b d66a dc3f
00000070: 6c70 a73f a714 68bf 9b3b 2d2b ddc5 e9bf
-0.04362986493470278 -0.39837366938551766 -0.0021210724642432544 0.8227547894527353 -0.4494682564906063 0.2843068025551701 0.18196047853917718 0.6980679135398342
0.31252623419100645 -0.8243082272377645 0.36938004569644667 -0.6888414659621637 0.5113458142974061 0.4440208780664158 -0.0029395357680482206 -0.8054033129973165

2.bias f8 [16]
00000000: c9ed 2cb4 9040 ed3f bdf6 747b 6ac4 ec3f
00000010: 1e3a f267 218f f33f 0000 00e0 fa36 bfbf
00000020: 0000 0000 0000 0000 684e 10f5 c941 dc3f
00000030: 37b4 fdf7 c888 f23f a508 8548 aa22 d6bf
00000040: b30c 906e ce05 dc3f 47ad be24 827f f83f
00000050: 3b57 05a0 801c f03f 13b7 b104 26e9 e7bf
00000060: caaf 6981 3408 b4bf 643e a6dd b125 b6bf
00000070: 68b4 924c 2e9c ea3f aabc 519e 3334 e63f
0.9141315001538085 0.8989765559451467 1.2224439678572092 -0.12193267792463303 0.0 0.4415154355240021 1.1583947837018636 -0.34586579401014667
0.43785439297807754 1.5311299739212971 1.0069586039366658 -0.7472105113681401 -0.07825019988530282 -0.08651267682420777 0.831565045887726 0.6938722698377167

4.bias f8 [16]
00000000: c65d 288b 19a2 d43f 207b 54fd 38c1 e4bf
00000010: 50b4 ebc1 706b f53f fc11 ec67 68a8 f23f
00000020: 7fb8 79a3 da4a fa3f b78d b32f e988 ec3f
00000030: 9fae e80e f427 bb3f 1ee2 b80b d2b3 f23f
00000040: 0296 e373 763a ea3f 0654 825c ea74 fd3f
00000050: 8f32 0886 00af d9bf a330 096b d039 f33f
00000060: 0000 00e0 f2a1 c4bf 5105 261c d910 fc3f
00000070: fa72 3080 8b92 e53f 5855 62bf 92f3 f23f
0.32239378537766716 -0.648586745057262 1.3387305808094148 1.1661151942690813 1.6432749162445643 0.8917127544086075 0.10607838977801486 1.1689014871500443
0.819636560769766 1.8410438169132717 -0.4013062771707973 1.2016147786226063 -0.16119228303432465 1.7541133021880635 0.6741387847610831 1.1844661212865812

6.bias f8 [2]
00000000: 3e7d e92d efd7 f93f 3aa6 6b97 3c3e f83f
1.6152183335724 1.5151945032943233
