rocket-lander_with_acceleration_over_approximation/network_repairing/models/acasxu_epoch186.pt (torch, 8144 bytes, 4 tensors)

0.bias f8 [16]
0	0xbfa752e4f4aa066c	-0.04555430876372388
1	0xbfd9708eb68de6f9	-0.39749496295517833
2	0xbf5128c2048a08df	-0.0010473150925070435
3	0x3fea3e27383d7846	0.8200870607795501
4	0xbfdc26f6e8efa30c	-0.43987820384659027
5	0x3fd1b98116de524b	0.2769472812008515
6	0x3fc77f78f66e3aaf	0.18357765228980358
7	0x3fe615a1eccb5ca0	0.6901406884088779
8	0x3fd3ea628c24a659	0.3111807221017436
9	0xbfead0a8ea82e58f	-0.837971170453942
10	0x3fd7b6dccec944f4	0.37053604310956634
11	0xbfe5ebb45590c0d6	-0.6850225135040329
12	0x3fe04a213ea5f826	0.5090490554428058
13	0x3fdbf9d11fd6f85e	0.437122613042339
14	0xbf6310e9168b7366	-0.0023273994923855177
15	0xbfe9aecd7c398252	-0.8025882173788637

2.bias f8 [16]
0	0x3fecf3053a072bba	0.9046655782088842
1	0x3fec7f0b112c2df3	0.8905082068826559
2	0x3ff3865126b60ea2	1.2202922355799406
3	0xbfbf36fae0000000	-0.12193267792463303
4	0x0000000000000000	0.0
5	0x3fdac9357ab52edf	0.41853081687143673
6	0x3ff27f0c0f620ee9	1.1560173607730866
7	0xbfd6655128cee273	-0.3499339006917019
8	0x3fdbfe1f584a6e25	0.4373854028906144
9	0x3ff878ec45b8e270	1.5295222018741264
10	0x3ff015935f27afdd	1.0052674977296114
11	0xbfe7bad5d6c12bbf	-0.7415570444512624
12	0xbfaf060a4c2d7841	-0.06059295825865308
13	0xbfb625b1dda63e64	-0.08651267682420777
14	0x3fea83bf6100a7eb	0.8285824675160688
15	0x3fe63d6b6d0a6323	0.6949975137423262

4.bias f8 [16]
0	0x3fd59d10c0075924	0.33771151306918257
1	0xbfe292b0931e60cd	-0.5804064629947107
2	0x3ff568b9cb61941d	1.3380678124024208
3	0x3ff2954e4e117040	1.1614516305480862
4	0x3ffa7348991b78f7	1.6531454067949747
5	0x3fe9c004e8365ec6	0.8046898398779028
6	0x3fbd17f7f27ca426	0.1136469809540733
7	0x3ff2a53d4a6f27a2	1.1653416545472983
8	0x3fe842790deff46c	0.7581143638814303
9	0x3ffd93bfde47e28b	1.8485716517299433
10	0xbfd9af008608328f	-0.4013062771707973
11	0x3ff3288f33070a2e	1.1974021905194934
12	0xbfc4a1f2e0000000	-0.16119228303432465
13	0x3ffc00db232fbd2a	1.7502089857551462
14	0x3fe6716a43d9d922	0.7013446164335486
15	0x3ff232783d79404e	1.137321701175114

6.bias f8 [2]
0	0x3ffa3090b5984f94	1.6368567555955211
1	0x3ff7fdf19474dd37	1.4994979666788149
