rocket-lander_with_acceleration_over_approximation/network_repairing/models/acasxu_epoch194.pt (torch, 8144 bytes, 4 tensors)

0.bias f8 [16]
00000000: ece8 f5e9 0fd7 a6bf 5307 9fc0 9c7a d9bf
00000010: bc26 5692 2ef4 55bf 324e 4888 9142 ea3f
00000020: 1d88 e96c 6a27 dcbf cbb7 eebf 4bc9 d13f
00000030: fd67 0bb7 c24d c73f be68 a6cb 2222 e63f
00000040: 340e 128e b0e4 d33f 8a09 c89b 4fb5 eabf
00000050: 093f d43c 6bae d73f 5539 5fcd eef3 e5bf
00000060: 4ba2 7210 ec4e e03f 78ba ac6d e71d dc3f
00000070: 52aa 9b71 3269 66bf 1298 d657 2ab3 e9bf
-0.044609544095651404 -0.3981086617533169 -0.001339955787758403 0.8206260358587711 -0.43990574489555617 0.2779111265507452 0.1820605653545612 0.6916669824161301
0.3108331096084129 -0.8346326868634588 0.37002068462696563 -0.6860269557162534 0.5096340485807301 0.43932519636556533 -0.0027357087354762744 -0.8031207767096495

2.bias f8 [16]
00000000: 7134 6b10 73fa ec3f 8ed9 fb75 c38a ec3f
00000010: f29e 3927 4688 f33f 0000 00e0 fa36 bfbf
00000020: 0000 0000 0000 0000 226c 8ba7 341b db3f
00000030: 8f20 3dc1 9a81 f23f 3fcc 79c5 895c d6bf
00000040: 8120 390d 79fe db3f b8b5 a238 c079 f83f
00000050: e2b7 a1d4 7c17 f03f 0ac3 aaa7 5dc4 e7bf
00000060: 15ea edcf d5b3 b0bf 643e a6dd b125 b6bf
00000070: 0731 6642 cc88 ea3f 9d5b 24d2 ed39 e63f
0.9055724449805337 0.8919389061327807 1.2207700283269642 -0.12193267792463303 0.0 0.42353550302294896 1.1566417263402717 -0.34939808163398206
0.43740679065059146 1.5297243320777465 1.0057342821050885 -0.742720439409909 -0.06524406744384977 -0.08651267682420777 0.8291989609583944 0.6945714096390138

4.bias f8 [16]
00000000: 76a5 7806 b382 d53f 644f eb90 5222 e3bf
00000010: 1de9 a8d4 066a f53f 2658 9d88 d598 f23f
00000020: b348 f572 4869 fa3f 945a 8528 3c62 ea3f
00000030: 5505 7ae0 e2a1 bc3f 8131 b258 d7a7 f23f
00000040: 0818 22b2 3fb8 e83f 46fe 5936 ef8c fd3f
00000050: 8f32 0886 00af d9bf 838f e853 4b2c f33f
00000060: 0000 00e0 f2a1 c4bf 094e 18f2 6c03 fc3f
00000070: 167f 514d c13e e63f a58b 7046 6d59 f23f
0.3361022532650034 -0.5979397612049806 1.3383854205154144 1.1623130165585365 1.650703858428227 0.8244915763305749 0.11184518795382321 1.1659768547716285
0.7724913100398689 1.8469078181368714 -0.4013062771707973 1.1983140256570273 -0.16119228303432465 1.7508363205751059 0.6951605329631743 1.1468327285335616

6.bias f8 [2]
00000000: 2fc8 39a7 011e fa3f bdee 32de 850a f83f
1.6323257953886345 1.5025690726896948
