rocket-lander_with_acceleration_over_approximation/network_repairing/models/acasxu_epoch51.pt (torch, 8144 bytes, 4 tensors)

0.bias f8 [16]
000000 f8 63 bb d7 d6 85 a9 bf a5 51 2b 73 8c 64 d8 bf
       -0.049849237284156744 -0.3811370014857636
000010 f9 47 6e db 4b f9 29 3f fe b2 fc 0e 00 e7 e9 3f
       0.00019816447249049166 0.8094482701031607
000020 e9 13 08 35 27 ab da bf 40 dd c0 8c ba 85 cf 3f
       -0.4166963594328182 0.2462685763618797
000030 dc 3c 9b 76 6f 2c c9 3f 3c 6b 30 ac 6c 6d e5 3f
       0.19666856089904783 0.6696074832028454
000040 f9 24 1b 08 be dd d3 3f 33 38 12 fb fb d9 ee bf
       0.31040907661061073 -0.964109411595706
000050 a7 97 fb ad b5 7a d8 3f 43 c4 c2 7e 62 75 e5 bf
       0.3824896048594106 -0.6705791927144066
000060 9d 8d fd 2c 76 bc df 3f 57 44 d4 a5 ab e8 da 3f
       0.49587778466794835 0.42045108026747385
000070 6d 66 ca b8 37 cb 69 bf 8a c2 3b 0e 9c 6f e9 bf
       -0.0031486595456272 -0.7948742177960224

2.bias f8 [16]
000000 a9 d0 c7 e1 be 6f eb 3f 91 fb 99 ca e5 58 eb 3f
       0.8573908242965632 0.8546017605839201
000010 4d 19 17 22 90 6e f3 3f 00 00 00 e0 fa 36 bf bf
       1.2144929248475649 -0.12193267792463303
000020 00 00 00 00 00 00 00 00 47 3a d1 23 2e 82 d6 3f
       0.0 0.3516955709245945
000030 ec 0c b9 57 21 67 f2 3f 00 a2 17 aa a6 53 d5 bf
       1.1501782824205362 -0.3332306538636942
000040 37 84 f9 b4 7b dc db 3f 4b 69 b7 5f e2 6c f8 3f
       0.43533222840602853 1.5265830744670719
000050 44 9a 8b f8 23 e4 ef 3f 9c 31 16 4a 12 af e7 bf
       0.9965991835022767 -0.7401210257535698
000060 85 a4 0f f4 69 73 a6 bf 64 3e a6 dd b1 25 b6 bf
       -0.04384928802739644 -0.08651267682420777
000070 d4 cc 9b 2e 62 3a ea 3f 7d bb 18 79 3c b4 e6 3f
       0.8196268949817758 0.709501492039507

4.bias f8 [16]
000000 5d 17 93 fb dd e5 d6 3f 29 7f 39 01 27 70 d4 bf
       0.35777997558431257 -0.3193452369650794
000010 fb eb 2b a4 ad 44 f5 3f e3 03 e5 78 f6 75 f2 3f
       1.3292671597434935 1.1537995073742813
000020 91 cd bc 3b 05 1e fb 3f 34 8a 68 8a 50 b1 dc 3f
       1.6948292096611548 0.4483224250454072
000030 75 56 59 61 30 b3 c1 3f 31 e7 90 19 52 8a f2 3f
       0.13828091386192268 1.1587697027848203
000040 c7 72 7d 71 d7 07 e2 3f 38 f7 91 4a 5f 1c fe 3f
       0.5634572235681724 1.8819268143556211
000050 26 00 f8 78 7b 66 d9 bf 3b ea 65 55 9e e8 f2 3f
       -0.3968800240836593 1.1817916236747255
000060 00 00 00 e0 f2 a1 c4 bf 5c e7 36 a3 d0 d3 fb 3f
       -0.16119228303432465 1.7392126441540858
000070 db 6f 89 ae c1 0f e9 3f 5f 42 08 ca 6a 20 f0 3f
       0.7831734093592745 1.0079143421063674

6.bias f8 [2]
000000 97 4e 60 3f cb 8d fb 3f 09 f6 32 7c ca 39 f7 3f
       1.7221176601059704 1.4516091205144923
