rocket-lander_with_acceleration_over_approximation/network_repairing/models/acasxu_epoch190.pt (torch, 8144 bytes, 4 tensors)

0.bias f8 [16]
0	0xbfa6f93a338b7039	-0.04487020377357038
1	0xbfd97d7d01afcbad	-0.39828419842450097
2	0xbf5175ca5b623346	-0.0010656810896165366
3	0x3fea415e048243af	0.8204794014037499
4	0xbfdbfa13866a223d	-0.43713844419884024
5	0x3fd1b9802067519a	0.27694705166256883
6	0x3fc770bbd2d6953b	0.1831278590663404
7	0x3fe61ab762bc521e	0.6907612732343897
8	0x3fd3e8b69ba7e790	0.3110786933972287
9	0xbfeac3b7411c65fb	-0.8363910934160111
10	0x3fd7b61aad9a40f9	0.3704897590005341
11	0xbfe5f440b78ed2fb	-0.6860660157313697
12	0x3fe04d361cc64028	0.5094252168655702
13	0x3fdc09a1aa70fdb4	0.438087860533382
14	0xbf65bb0a04924e8e	-0.002652663770797598
15	0xbfe9ad2873727357	-0.8023874525857576

2.bias f8 [16]
0	0x3fecefe0ae1f2701	0.9042819405378567
1	0x3fec875760368dc9	0.8915211562311295
2	0x3ff387b8c37a419b	1.2206351886598898
3	0xbfbf36fae0000000	-0.12193267792463303
4	0x0000000000000000	0.0
5	0x3fdaf3f7a6c72ab0	0.4211405876818999
6	0x3ff28107fd9c83cd	1.1565017611212511
7	0xbfd664f73dfd41d0	-0.349912462746059
8	0x3fdbfe8c5db4ee82	0.43741139555979924
9	0x3ff8792cd00587d1	1.5295837522357838
10	0x3ff0171ac7a48e37	1.005640773634594
11	0xbfe7bc32bfcd47e6	-0.7417234178667484
12	0xbfb03082b5cc3d88	-0.06324021280692282
13	0xbfb625b1dda63e64	-0.08651267682420777
14	0x3fea8d4a6954260f	0.8297473962022098
15	0x3fe63b842313792e	0.6947651562766504

4.bias f8 [16]
0	0x3fd5881d924bbcca	0.3364328316374211
1	0xbfe2e0a50ec2fb84	-0.5899224556268199
2	0x3ff569c70bb15ad6	1.3383245903730105
3	0x3ff29722010d2bc5	1.161897663218711
4	0x3ffa6ebbbd01ea0f	1.652034509954891
5	0x3fea0dddb72b1a3d	0.8141926362521371
6	0x3fbccf26146ad854	0.11253583906622683
7	0x3ff2a6b4336b9ff5	1.1656991966829058
8	0x3fe881579298139d	0.7657888281979585
9	0x3ffd9072b8651856	1.847765655796612
10	0xbfd9af008608328f	-0.4013062771707973
11	0x3ff32a76b3f4eec3	1.1978671102105387
12	0xbfc4a1f2e0000000	-0.16119228303432465
13	0x3ffc02206f317b06	1.750519213055385
14	0x3fe6576842fbdf5e	0.6981698330191468
15	0x3ff24569afb102d5	1.1419464934298749

6.bias f8 [2]
0	0x3ffa27b6439fd3f3	1.6346953050208384
1	0x3ff803ecfe25df63	1.5009584357885266
