rocket-lander_with_acceleration_over_approximation/network_repairing/models/acasxu_epoch173.pt (torch, 8144 bytes, 4 tensors)

0.bias f8 [16]
000000 dc 3f 48 09 22 bf a7 bf 00 1c 4c 94 83 78 d9 bf
       -0.046380103715023074 -0.39798058969648764
000010 37 a2 0b b9 88 fe 46 bf 54 13 13 f5 1a 35 ea 3f
       -0.000701729544826674 0.8189825808154674
000020 1e 8d 3e 6f ac 0f dc bf 73 c3 49 b6 c0 9f d1 3f
       -0.43845663894372133 0.27537553597999603
000030 e7 56 a8 f8 fa c1 c7 3f c3 02 45 16 cc 02 e6 3f
       0.18560731069071965 0.6878414568855863
000040 69 88 b6 5c fb e9 d3 3f 9d ef 1d 89 a6 05 eb bf
       0.311156120815332 -0.8444397619309602
000050 a5 8b 82 0a c8 b2 d7 3f 8e eb e3 5b ff e6 e5 bf
       0.37028695131646777 -0.6844479365093876
000060 16 61 11 a3 63 40 e0 3f ee c9 5d 0b 80 c6 db 3f
       0.5078600106162721 0.43399048910137494
000070 13 a0 ff 9f 3a dd 63 bf 66 79 ea 48 01 aa e9 bf
       -0.0024248261470241144 -0.8020025657786334

2.bias f8 [16]
000000 25 e8 62 8c a7 df ec 3f 50 6d b8 ed dd 67 ec 3f
       0.9023015729828826 0.8876790659882463
000010 75 e1 f5 bc ed 82 f3 3f 00 00 00 e0 fa 36 bf bf
       1.2194650059955994 -0.12193267792463303
000020 00 00 00 00 00 00 00 00 68 21 6a e9 37 50 da 3f
       0.0 0.41114614290611096
000030 53 61 b3 ef ec 79 f2 3f f5 cb f7 2e fb 6d d6 bf
       1.1547669757183783 -0.3504627188369221
000040 b1 98 d1 9c 33 05 dc 3f 80 21 2a 45 ee 77 f8 3f
       0.43781748117761327 1.52927996652042
000050 9b ee 23 72 e1 0e f0 3f 1a b8 0c e1 34 ae e7 bf
       1.0036329706771656 -0.7400154490949291
000060 8e 88 27 32 d0 70 ac bf 64 3e a6 dd b1 25 b6 bf
       -0.05554819690930045 -0.08651267682420777
000070 7f 2b 55 5e 5c 76 ea 3f d1 50 40 16 5f 42 e6 3f
       0.8269483416018913 0.6956019816011808

4.bias f8 [16]
000000 52 25 ca 96 06 e9 d5 3f 22 a0 0c 88 05 ac e1 bf
       0.3423477623515129 -0.552248731347394
000010 3f ed 48 23 51 66 f5 3f 7c 5a c0 50 af 90 f2 3f
       1.3374797228160131 1.1603234438277061
000020 80 91 69 8e cc 83 fa 3f 07 13 b6 85 fa b4 e8 3f
       1.657177501962991 0.7720921145961207
000030 d7 38 7f 6f 0b 04 be 3f cc 4b a5 4a 5e a1 f2 3f
       0.11724921676725174 1.1643965640875988
000040 8b 25 97 2a b0 90 e7 3f 74 01 55 1f 78 a0 fd 3f
       0.7364121276706767 1.8516770576389634
000050 8f 32 08 86 00 af d9 bf 5f 5e cc d2 1f 23 f3 3f
       -0.4013062771707973 1.1960752710637264
000060 00 00 00 e0 f2 a1 c4 bf 82 4a 2c af c8 fd fb 3f
       -0.16119228303432465 1.749458965558603
000070 6b 06 40 73 18 b9 e6 3f 28 8b 50 0f 1a f7 f1 3f
       0.7100946665743327 1.1228275869586444

6.bias f8 [2]
000000 69 a2 95 f7 1a 50 fa 3f 9b 3c 99 bc 1f eb f7 3f
       1.6445569678563976 1.4949033133632728
