rocket-lander_with_acceleration_over_approximation/network_repairing/models/acasxu_epoch217.pt (torch, 8144 bytes, 4 tensors)

0.bias f8 [16]
-0.04450802168386241 -0.3973503183718367 -0.0018066771605490827 0.8222318101999387 -0.4461640266721265 0.2830184146337019 0.18166591570060103 0.6966156925880811
0.31138402107557767 -0.8262602840183977 0.36890099763080114 -0.6883936598447383 0.5110942416001042 0.44339240735831353 -0.0032430691569052504 -0.804555557956818
00000000: 176d 1563 c1c9 a6bf 1f95 9d07 306e d9bf
00000010: 8a4e 6ad4 c099 5dbf 8944 d115 b94f ea3f
00000020: 5457 cd8f f38d dcbf 021f c144 f91c d23f
00000030: 56b1 5d27 d440 c73f 747a 31fe ac4a e63f
00000040: a90f c13e b7ed d33f 50f7 3a68 b970 eabf
00000050: e14e 12ee 129c d73f 1fd2 f923 5207 e6bf
00000060: 7715 9b4f e25a e03f c083 398c 8a60 dc3f
00000070: 785e f67e 3591 6abf 86aa 274c ebbe e9bf

2.bias f8 [16]
0.911626664877015 0.8980671445693524 1.222080312692785 -0.12193267792463303 0.0 0.437353404786414 1.1576444781832054 -0.3472975793105501
0.43738347332742805 1.53064207325034 1.0066361506430408 -0.7463349938322955 -0.07584144950001213 -0.08651267682420777 0.8310172124165133 0.6945311039652771
00000000: dadd f9ae 0b2c ed3f fa32 f14e f7bc ec3f
00000010: 8e9d 0116 a48d f33f 0000 00e0 fa36 bfbf
00000020: 0000 0000 0000 0000 7f85 9622 99fd db3f
00000030: d411 6337 b685 f23f 139a 47a0 1f3a d6bf
00000040: e923 7040 17fe db3f 9bde e78a 827d f83f
00000050: 25bb 1f82 2e1b f03f 9fd7 cbec f9e1 e7bf
00000060: 4fa6 4861 586a b3bf 643e a6dd b125 b6bf
00000070: 8bbe b768 b197 ea3f 92bd 324b 9939 e63f

4.bias f8 [16]
0.32605316206688667 -0.6363951015902971 1.3384871926464554 1.165072357633899 1.644688847516903 0.8774545305908579 0.10760443235739893 1.1680903372311533
0.8087973114658179 1.8423056993691191 -0.4013062771707973 1.2008688475120626 -0.16119228303432465 1.7533295657025536 0.6779705789497747 1.1752433616235363
00000000: 2b6b f514 0ede d43f 0e47 9542 595d e4bf
00000010: 8680 e88b 716a f53f ed2d 98e9 22a4 f23f
00000020: 7fe5 c240 a550 fa3f 2aac 1386 1b14 ec3f
00000030: 3932 e1cd f68b bb3f 13e7 527e 7fb0 f23f
00000040: 49d4 3ae6 aae1 e93f 7a65 808a 157a fd3f
00000050: 8f32 0886 00af d9bf a297 ad40 c236 f33f
00000060: 0000 00e0 f2a1 c4bf 6ed6 7c4d a30d fc3f
00000070: baa9 075b efb1 e53f 1f3a b0fb cbcd f23f

6.bias f8 [2]
1.6190805640798944 1.5123183800391522
00000000: 81ff 8405 c1e7 f93f 9686 f6c1 7432 f83f
