rocket-lander_with_acceleration_over_approximation/network_repairing/models/acasxu_epoch55.pt (torch, 8144 bytes, 4 tensors)

0.bias f8 [16]
00000000: 684e 6506 74cc a9bf d0df 5ab1 3866 d8bf
00000010: c9f2 288d 5a77 393f 660a 161c 39e9 e93f
00000020: 2a7f e7db 17ba dabf 1132 ac59 efb7 cf3f
00000030: 24e8 e4c1 e21b c93f 5efe b2f0 d671 e53f
00000040: 923f 3d18 0de3 d33f 6e0a cd60 6fb4 eebf
00000050: 4d92 f6da b66c d83f 0d11 8065 2a7c e5bf
00000060: ae77 77e3 41c5 df3f 0833 608a 04e5 da3f
00000070: 482d 5858 bd55 70bf 4183 b8da 5272 e9bf
-0.050387979298332664 -0.38123910255262405 0.00038858376243293115 0.8097196148449484 -0.4176082274916434 0.24780074957415413 0.19616350619782097 0.6701464368015413
0.3107331024848402 -0.9595257654803626 0.3816353929817396 -0.6714069349696118 0.49641463483373627 0.42022813332805287 -0.003988017682341756 -0.7952055236711218

2.bias f8 [16]
00000000: 0d82 5f68 7985 eb3f 64ab c48e ca65 eb3f
00000010: 1b29 b2d6 f86d f33f 0000 00e0 fa36 bfbf
00000020: 0000 0000 0000 0000 533a 9664 3e9b d63f
00000030: f1b7 92c3 e766 f23f 81b8 1bd0 9d6c d5bf
00000040: 97fb e50e bbdb db3f 791b 66a9 6f6d f83f
00000050: 254e ee70 dfe3 ef3f 05c6 bdb9 d3a0 e7bf
00000060: 464c 9330 c9f0 a5bf 643e a6dd b125 b6bf
00000070: 88de c95f ee3b ea3f 2583 fe49 bab3 e63f
0.8600432432686503 0.8561756885950271 1.21434863916017 -0.12193267792463303 0.0 0.3532253248494374 1.1501233710837335 -0.33475442240786185
0.4352862973682305 1.5267178170340385 0.9965665059739349 -0.7383822086105175 -0.042852675609218724 -0.08651267682420777 0.8198158141012337 0.7094394154738423

4.bias f8 [16]
00000000: a4b4 47e4 0005 d73f ab65 3211 0ce0 d4bf
00000010: bcb5 55a7 ff45 f53f 1d0d 46b1 9376 f23f
00000020: cf05 67cf 3c19 fb3f 8f88 2701 0755 dd3f
00000030: d588 c695 42ad c13f 4b10 cd2c 428b f23f
00000040: 79ab dd45 f92a e23f c2e3 5114 cc17 fe3f
00000050: 2600 f878 7b66 d9bf 5c07 3f48 8aea f23f
00000060: 0000 00e0 f2a1 c4bf 2aff 45c1 74d4 fb3f
00000070: b2cc 5a63 3c09 e93f b292 4d1f 8a2f f03f
0.35968038838366057 -0.3261747520387767 1.3295895134464066 1.153949444270274 1.6936615087182536 0.4583146582864481 0.1380999785733993 1.1589986562767247
0.567745815712768 1.8808098596330045 -0.3968800240836593 1.1822607824437545 -0.16119228303432465 1.7393691587203173 0.7823774281045159 1.0116063330434995

6.bias f8 [2]
00000000: d6e4 992c 2e83 fb3f 9101 8d18 0b3f f73f
1.7195264570457787 1.4528914412513567
