rocket-lander_with_acceleration_over_approximation/network_repairing/models/acasxu_epoch148.pt (torch, 8144 bytes, 4 tensors)

0.bias f8 [16]
000000 a8 ee 6d 0a 42 a1 a8 bf 7c 08 e2 10 0a 52 d9 bf
       -0.048105300686953456 -0.395632282721756
000010 79 a9 38 b1 9a c2 2a bf 1c f5 8d ac f4 23 ea 3f
       -0.00020416391690620728 0.8168891306119437
000020 1a 38 c1 6f 40 e0 db bf b5 23 c4 fb 50 54 d1 3f
       -0.43556223786879544 0.2707712610868456
000030 81 2c 05 eb 1b cd c7 3f fe 54 d4 29 70 de e5 3f
       0.18594693160625655 0.6834030930500885
000040 97 1f 5e f2 7f f2 d3 3f 23 eb 92 98 98 99 eb bf
       0.3116760126945279 -0.8624995212515824
000050 44 f6 3b d5 f5 b5 d7 3f 90 fa 95 5c 43 cf e5 bf
       0.37048097442297867 -0.6815506752316924
000060 8f 75 ba cd 90 2d e0 3f cf 4b 59 76 e3 73 db 3f
       0.5055622118122062 0.4289482742071273
000070 71 43 a5 2c 7e d0 56 bf f6 1e 85 2e d1 a1 e9 bf
       -0.0013924820110171288 -0.8010030659288236

2.bias f8 [16]
000000 55 6f 8d 5e 49 b8 ec 3f 2e 0c da 5e 81 38 ec 3f
       0.8974959227302671 0.8818976261685572
000010 26 a0 9e 07 64 7c f3 3f 00 00 00 e0 fa 36 bf bf
       1.2178688333169787 -0.12193267792463303
000020 00 00 00 00 00 00 00 00 3e 90 70 91 9c 6a d9 3f
       0.0 0.3971320553121166
000030 02 46 97 37 43 71 f2 3f 2f cf 27 a4 20 63 d6 bf
       1.1526519938964843 -0.3498002627450089
000040 13 f3 cd 92 24 09 dc 3f 4b 18 d3 32 1a 76 f8 3f
       0.4380580361974335 1.5288335786185765
000050 a8 b3 f9 ed 8e 04 f0 3f 3d c2 17 ae 2f aa e7 bf
       1.0011128707803696 -0.7395246887445591
000060 13 70 93 25 85 ca a8 bf 64 3e a6 dd b1 25 b6 bf
       -0.048420105778603915 -0.08651267682420777
000070 3b 43 db 48 93 5b ea 3f 43 10 6b 1e ff 58 e6 3f
       0.8236786292055521 0.6983638376336859

4.bias f8 [16]
000000 ec e7 34 08 ae 64 d6 3f de d7 f8 5f 9d fd df bf
       0.349895008100815 -0.49985441562909994
000010 e0 74 bb f6 ea 60 f5 3f a4 6c f8 ce 62 88 f2 3f
       1.3361615789393042 1.1582973561078598
000020 2e dd 53 71 a5 a3 fa 3f 54 53 bb c8 f0 b1 e6 3f
       1.6649527003153923 0.709221260122471
000030 28 2b 3c ec 79 73 bf 3f 5c 6d b9 8d 5a 9a f2 3f
       0.12285577790696023 1.1626840149027293
000040 f8 8f cf 82 6c 44 e6 3f d0 ea 7a a3 0d ba fd 3f
       0.6958525233171704 1.8579231630271131
000050 8f 32 08 86 00 af d9 bf 46 0c 5b 1d df 19 f3 3f
       -0.4013062771707973 1.1938162943558992
000060 00 00 00 e0 f2 a1 c4 bf cc 4a 1a 94 35 f5 fb 3f
       -0.16119228303432465 1.7473655495893352
000070 9e fe 3f 7f f6 59 e7 3f ff f2 1f 89 ab 8a f1 3f
       0.7297317967749739 1.0963549953877985

6.bias f8 [2]
000000 b2 1e 0e 4d 77 92 fa 3f 60 bc b7 62 38 c3 f7 3f
       1.660758305546477 1.4851611953888764
