rocket-lander_with_acceleration_over_approximation/network_repairing/models/acasxu_epoch79.pt (torch, 8144 bytes, 4 tensors)

0.bias f8 [16]
00000000: 3256 5833 1f52 a9bf 9bee d933 63ca d8bf
00000010: e410 d448 49f0 2f3f 56ff c864 60f8 e93f
00000020: 784c cfe0 6948 dbbf 0b3e caed 7558 d03f
00000030: 2268 3e67 58a3 c83f 1f09 5127 ca8c e53f
00000040: 8dc3 1099 abf4 d33f eccc ae9b 0dca edbf
00000050: e016 a307 5d2a d83f c3ca fac8 519c e5bf
00000060: f3c4 aa3f 7eef df3f 5730 59ce 8cf6 da3f
00000070: 43bb cf43 764b 71bf 2c0b 1329 7180 e9bf
-0.04945466520090881 -0.38735275329211455 0.00024367231927880436 0.811569401594151 -0.4262947745712107 0.25539921018295847 0.1924849037284853 0.6734362380887297
0.3118084902553669 -0.9309146919898956 0.3775856566029301 -0.6753319669135965 0.4989925023792942 0.42129821921549165 -0.004222356769772176 -0.7969289591058888

2.bias f8 [16]
00000000: fa4b 5bac 90e9 eb3f ea48 b652 50a5 eb3f
00000010: f017 3386 406e f33f 0000 00e0 fa36 bfbf
00000020: 0000 0000 0000 0000 95f6 560a 8449 d73f
00000030: d5bf 198d a467 f23f 6578 d72a 2ce5 d5bf
00000040: 3b33 3615 a0f2 db3f 866d 3875 9670 f83f
00000050: bb33 7fcf 50e3 ef3f 9bb6 c48f 098a e7bf
00000060: 6339 ea59 4af1 a3bf 643e a6dd b125 b6bf
00000070: 7037 ba83 ca41 ea3f 676b 62fe e299 e63f
0.8722613684025184 0.8639299025983551 1.2144170038386584 -0.12193267792463303 0.0 0.36386204728828747 1.150303412603525 -0.34211258109815496
0.4366836745401092 1.5274872378275588 0.996498494403219 -0.7356002624489578 -0.0389502749213644 -0.08651267682420777 0.8205311367798753 0.7062849968382182

4.bias f8 [16]
00000000: 06de 5ab3 3e53 d73f a6a1 87cf 7d72 d7bf
00000010: 836e 9301 844f f53f cf05 5eaa 7e7b f23f
00000020: 6de8 7779 ddfd fa3f d9b5 0ba6 6699 e03f
00000030: c8a4 81f4 006f c13f 07ce 3ad1 718f f23f
00000040: 4f81 2b10 7bf0 e23f 8374 7c34 a3ff fd3f
00000050: 8f32 0886 00af d9bf 7cf4 9360 ecf6 f23f
00000060: 0000 00e0 f2a1 c4bf 19ea 89e9 5fdb fb3f
00000070: 577d 4570 a0d1 e83f 8075 be3e c885 f03f
0.3644558669579684 -0.36636300341208494 1.3319130002554693 1.1551500945064281 1.6869787926539417 0.5187257044869354 0.13620006502904958 1.1600206540141487
0.5918555560893227 1.8749115038147302 -0.4013062771707973 1.1852840206695694 -0.16119228303432465 1.7410582659346174 0.7755891983796727 1.0326616717278227

6.bias f8 [2]
00000000: 531a 8a10 8b47 fb3f bcd5 b7a2 2b5d f73f
1.704966606719286 1.4602466922927837
