rocket-lander_with_acceleration_over_approximation/network_repairing/models/acasxu_epoch106.pt (torch, 8144 bytes, 4 tensors)

0.bias f8 [16]
000000 9b e9 b5 9a 53 bd a8 bf 5d fd 35 ce 10 00 d9 bf
       -0.04831944716984823 -0.3906290067461294
000010 1b 9b 73 ab a9 3a 03 3f e6 42 16 de 49 0a ea 3f
       3.6676695737194845e-05 0.8137559259067444
000020 b1 ef f8 7b 25 a0 db bf de a5 66 c4 aa bb d0 3f
       -0.4316495619457284 0.26145428828985284
000030 b0 15 e7 44 de 42 c8 3f 1f 54 75 c9 a7 ad e5 3f
       0.18954065670383846 0.6774481711132728
000040 0b 5b 77 5b 64 fa d3 3f bb 6c 91 b2 f8 e4 ec bf
       0.3121577161049777 -0.9029506194741751
000050 2d 66 f8 b6 b9 eb d7 3f f1 5d 35 77 4d b6 e5 bf
       0.3737625395602631 -0.6785037353792501
000060 33 fe ae 45 01 0f e0 3f 06 3b 2c 2d 8f 1f db 3f
       0.5018316613204149 0.4238012257709872
000070 dc 2c 48 27 83 1b 6d bf ca cc b9 a4 91 88 e9 bf
       -0.003553157958099724 -0.7979210107136165

2.bias f8 [16]
000000 25 a1 5d 9a e6 44 ec 3f e0 e1 11 73 71 e9 eb 3f
       0.8834107413249838 0.8722464797456801
000010 9f 8f 67 f6 30 73 f3 3f 00 00 00 e0 fa 36 bf bf
       1.215622866170612 -0.12193267792463303
000020 00 00 00 00 00 00 00 00 82 e8 08 32 e3 17 d8 3f
       0.0 0.37645797620974275
000030 dd 74 5d f1 59 68 f2 3f 97 8e 32 d2 16 40 d6 bf
       1.150476401169093 -0.34766169097040617
000040 a3 1b c8 ca ed 00 dc 3f f0 2b ae 5c 9f 72 f8 3f
       0.43755669405839565 1.5279840107275469
000050 88 9d 23 b9 53 ee ef 3f 51 95 2f 65 f8 8f e7 bf
       0.9978426567076193 -0.7363244987761083
000060 d9 e0 19 55 b6 69 a5 bf 64 3e a6 dd b1 25 b6 bf
       -0.04182214535552626 -0.08651267682420777
000070 de aa e0 99 e1 4a ea 3f cd 7a b4 de 34 85 e6 3f
       0.8216407781049744 0.7037605619151123

4.bias f8 [16]
000000 8b 28 79 53 c1 3b d7 3f fe 77 3c 1c 0a 3b da bf
       0.3630221667450619 -0.409853484701557
000010 62 98 df 02 d1 56 f5 3f eb 3d 15 85 ac 7e f2 3f
       1.3336954223864486 1.1559262465051414
000020 36 0b c1 4a 11 da fa 3f 63 0b a6 02 6f 07 e3 3f
       1.678239147194018 0.5946574260454834
000030 cb 24 d6 6e 40 d5 c0 3f 53 96 89 2a 89 90 f2 3f
       0.13150792514742302 1.1602870618456975
000040 9e db 9a 20 3d fb e3 3f 42 ed d4 d7 aa e2 fd 3f
       0.6244187962355345 1.8678387099196958
000050 8f 32 08 86 00 af d9 bf 27 80 d6 8f 63 03 f3 3f
       -0.4013062771707973 1.1883273714702314
000060 00 00 00 e0 f2 a1 c4 bf a7 e5 6a d3 80 e3 fb 3f
       -0.16119228303432465 1.7430427797793102
000070 c4 a2 6b 45 11 52 e8 3f 16 6a 09 ad 91 e6 f0 3f
       0.7600180011623583 1.056291271138098

6.bias f8 [2]
000000 d9 a4 3d 3a 29 ff fa 3f c7 21 db 65 33 81 f7 3f
       1.6872951769858473 1.4690431574582463
