rocket-lander_with_acceleration_over_approximation/network_repairing/models/acasxu_epoch19.pt (torch, 8144 bytes, 4 tensors)

0.bias f8 [16]
000000 6f 91 85 c8 07 7f a7 bf ec df 18 c0 4e 42 d8 bf
       -0.04589104006552957 -0.37904709586609786
000010 29 65 74 59 df e3 40 3f b7 fd 79 04 2a d9 e9 3f
       0.0005154457639121912 0.807759293311327
000020 27 55 1d c0 fa 3d d9 bf 3f 01 71 64 73 e3 ce 3f
       -0.3944079280966712 0.24131624607435673
000030 83 f0 1d 96 0f 8c ca 3f a8 99 06 bd 06 52 e5 3f
       0.207399318980496 0.6662629787359053
000040 ff 0c 68 b4 46 b5 d3 3f 7d 73 fa fc 67 f0 f0 bf
       0.307939220598385 -1.0586929208722886
000050 cd b3 2a c6 db 1c d9 3f 28 56 21 b7 ca 59 e5 bf
       0.39238638260104325 -0.6672109200250746
000060 d1 47 3f 3b 77 94 df 3f 2b 78 92 34 45 0d db 3f
       0.4934366301141582 0.4226849568748345
000070 86 f7 d1 fd 3e 22 71 bf b1 3b 83 80 ec 35 e9 bf
       -0.004183050213326106 -0.787832499505262

2.bias f8 [16]
000000 aa 48 8a e9 95 b6 ea 3f e7 12 13 69 d1 fb ea 3f
       0.8347882806140394 0.8432395031200856
000010 58 77 e5 0f 51 74 f3 3f 00 00 00 e0 fa 36 bf bf
       1.2158976193381559 -0.12193267792463303
000020 00 00 00 00 00 00 00 00 80 05 ae a6 3e ed d5 3f
       0.0 0.34260526921578816
000030 d6 d4 95 58 f5 6b f2 3f c0 ae 27 50 7a f5 d4 bf
       1.1513570270883995 -0.3274827749980709
000040 37 ea e7 97 fb c2 db 3f df a0 bb 09 82 65 f8 3f
       0.43377580484926476 1.524782217044098
000050 6d 77 5f 17 89 ef ef 3f 1d 8f e0 fc 0c 59 e8 bf
       0.9979901749136225 -0.7608704508788581
000060 da 98 c8 a9 b7 55 96 bf 64 3e a6 dd b1 25 b6 bf
       -0.021811361062781788 -0.08651267682420777
000070 ba 8b 52 70 26 69 ea 3f fb c0 66 63 30 9a e6 3f
       0.8253357118413682 0.706321901458096

4.bias f8 [16]
000000 fa 32 db 81 92 8d d5 3f 62 f6 cd e2 cb 20 d0 bf
       0.33676588708185273 -0.25200173519974645
000010 a9 17 d2 02 9d 39 f5 3f 01 71 d8 b0 86 6a f2 3f
       1.3265657530005035 1.1510073574091282
000020 3b 82 7f 25 d3 3c fb 3f 54 9e c1 45 2d f7 d7 3f
       1.7023498024719987 0.3744614773954471
000030 a3 3d 6e 0c eb aa c1 3f ba b3 64 53 a0 7c f2 3f
       0.13802850825275667 1.1554263360551276
000040 45 4c 97 a3 d3 ba e0 3f 10 6b f8 77 85 33 fe 3f
       0.5228059954773775 1.8875784574835883
000050 95 da 82 63 ed 30 d9 bf db d8 c1 46 04 d3 f2 3f
       -0.39361128538022544 1.176517750163433
000060 00 00 00 e0 f2 a1 c4 bf 8a c2 c7 5e 87 d0 fb 3f
       -0.16119228303432465 1.7384103491168923
000070 b5 c3 de 37 1d 37 e9 3f b3 4b 3b 48 81 4b ef 3f
       0.787977799531396 0.977966919972792

6.bias f8 [2]
000000 28 99 fb 81 ed c2 fb 3f e5 0c 42 61 d2 1d f7 3f
       1.7350897862866734 1.4447807120457636
