rocket-lander_with_acceleration_over_approximation/network_repairing/models/acasxu_epoch119.pt (torch, 8144 bytes, 4 tensors)

0.bias f8 [16]
0	0xbfa8b0e8ef19c9dc	-0.04822471541128312
1	0xbfd92243ef1b598a	-0.392716392042893
2	0xbf3ff2b5fe86d694	-0.00048748915881034163
3	0x3fea1186da4abdd0	0.8146394980921574
4	0xbfdba1fe94b6b212	-0.4317623569757255
5	0x3fd0e079a2ce42ab	0.2637008752726994
6	0x3fc810c79c008cff	0.18801207654278326
7	0x3fe5b9defc077672	0.6789393351024968
8	0x3fd3f83b11ef5643	0.31202580214935355
9	0xbfec710584a53186	-0.8887965765693913
10	0x3fd7d2bc94647cda	0.37223734370668426
11	0xbfe5bbe14c05b3b6	-0.6791845784006145
12	0x3fe017986f92327e	0.5028803042528833
13	0x3fdb35feab73d96c	0.42517058127795937
14	0xbf5f1b4c060f523f	-0.0018985979479470142
15	0xbfe98eb1a6a956d3	-0.7986686949832013

2.bias f8 [16]
0	0x3fec6b7221074f36	0.8881159443940081
1	0x3fec051dabaf1d2e	0.8756244996265303
2	0x3ff376231551ca43	1.2163420517723729
3	0xbfbf36fae0000000	-0.12193267792463303
4	0x0000000000000000	0.0
5	0x3fd879f65a7ef2c3	0.3824439891575759
6	0x3ff268682c7cf156	1.1504899728598352
7	0xbfd6501ca8302cea	-0.34863964485766863
8	0x3fdc08e15b3f6254	0.43804201041124213
9	0x3ff8736744a06e57	1.5281746559839087
10	0x3feff61502cfd5d8	0.9987893156928136
11	0xbfe79598a769ebfc	-0.7370112676429694
12	0xbfa5cb65912628f9	-0.042567419021979754
13	0xbfb625b1dda63e64	-0.08651267682420777
14	0x3fea4de43d857837	0.8220082475270435
15	0x3fe673fd69772fe3	0.701658922183466

4.bias f8 [16]
0	0x3fd71f87e16c1213	0.36129948629266656
1	0xbfdbf3a7dbf8c937	-0.436746563736182
2	0x3ff55b024523b099	1.3347189617880189
3	0x3ff28149adbd7454	1.1565644060822438
4	0x3ffac98d8779efa2	1.6742072383922069
5	0x3fe433d6d5cff824	0.6313280273459481
6	0x3fc08a46269c0068	0.1292197884104127
7	0x3ff2927b8b7d51fa	1.1607623528299187
8	0x3fe4927d0563e0a5	0.6428818803097057
9	0x3ffdd613678b3227	1.8647645992924795
10	0xbfd9af008608328f	-0.4013062771707973
11	0x3ff30adc30ac3251	1.1901513959193333
12	0xbfc4a1f2e0000000	-0.16119228303432465
13	0x3ffbe74d094a440a	1.7439699519056853
14	0x3fe8045df2aefa9b	0.7505330791389783
15	0x3ff11760fea5913a	1.068207735742432

6.bias f8 [2]
0	0x3ffaded751b96678	1.6794045631744705
1	0x3ff79264d268a452	1.473240682515343
