rocket-lander_with_acceleration_over_approximation/network_repairing/models/acasxu_epoch7.pt (torch, 8144 bytes, 4 tensors)

0.bias f8 [16]
0	0xbfa1f27471595886	-0.0350529087415206
1	0xbfd932c5ad61a8f1	-0.39372388774667316
2	0x3f651b3e122ad7ae	0.002576466781955631
3	0x3fe9fcfa99737902	0.812131213864433
4	0xbfd599a751472b1c	-0.3375032705049976
5	0x3fcd3858616a7b8b	0.22828202015531604
6	0x3fc985a1efdd571d	0.19939064228190598
7	0x3fe539a8aa5264fe	0.6632884337042524
8	0x3fd3c60144affc90	0.3089602633262496
9	0xbff184792aad821a	-1.0948421160793544
10	0x3fd8531aa113c1f4	0.380072266866619
11	0xbfe58a982e767547	-0.67316826891662
12	0x3fe005f5af62506e	0.5007275033444907
13	0x3fdb330840ffdc63	0.42498976085284407
14	0xbf7b13b45e0581dd	-0.006610588607458526
15	0xbfe93618f3bbe910	-0.7878536949567962

2.bias f8 [16]
0	0x3fe8f285d5bc3e9e	0.7796048330801175
1	0x3feaf99869662ab1	0.8429681833816486
2	0x3ff3781d13c1de6a	1.2168246051568539
3	0xbfbf36fae0000000	-0.12193267792463303
4	0x0000000000000000	0.0
5	0x3fd5f87a9ff651a1	0.34329095479304256
6	0x3ff27e67e9835260	1.1558608171082128
7	0xbfd70b1e18312567	-0.3600535618066573
8	0x3fdb9fa94f9fd830	0.4316199567396124
9	0x3ff8509dba002564	1.5196816697737967
10	0x3ff01cc105d25f5f	1.0070200183308413
11	0xbfe9369aabfd0fe7	-0.787915550150953
12	0xbf9b3c3da1bd3196	-0.026596987721221398
13	0xbfb68e885fbbcffc	-0.08811237656829002
14	0x3fead2cfe1503985	0.838233890595618
15	0x3fe6bd32803a57fc	0.7105953697634955

4.bias f8 [16]
0	0x3fd5aaae9c5a7c43	0.33854260701076927
1	0xbfc8fc06aedd54d8	-0.1951912263709008
2	0x3ff5249a65e7f5fe	1.3214363079745222
3	0x3ff25091daa6d299	1.144670347316753
4	0x3ffb6b6c7c9690e5	1.7137265078281925
5	0x3fdb5c704d9794d8	0.4275170095191476
6	0x3fc526de77af1d5c	0.16524868816325522
7	0x3ff26d6a021cee98	1.1517124254741358
8	0x3fe01347246d3e7d	0.5023532592258132
9	0x3ffe4e7316bb69de	1.8941527259799993
10	0xbfd89be148444ad1	-0.384514160702719
11	0x3ff2b7026f3c681a	1.1696800561098883
12	0xbfc4a1f2e0000000	-0.16119228303432465
13	0x3ffbb74daec9f931	1.732251818436975
14	0x3feaa8729cb6d9de	0.8330624638390949
15	0x3fee80ceef77e41b	0.9532236744991026

6.bias f8 [2]
0	0x3ffc32a3fccb0be3	1.762363421891444
1	0x3ff6b8f1e010f77c	1.4201525452221793
