rocket-lander_with_acceleration_over_approximation/network_repairing/models/acasxu_epoch112.pt (torch, 8144 bytes, 4 tensors)

0.bias f8 [16]
000000 22 7a 1c 2e 00 cd a8 bf 7a 30 e3 7d ec ff d8 bf
       -0.04843903124696093 -0.3906203488702499
000010 99 a4 82 18 ce 94 08 3f 9a 00 b5 04 01 0d ea 3f
       4.688505129142005e-05 0.8140873996672042
000020 d6 a6 4f bf 83 a2 db bf 7b c3 66 93 bf cc d0 3f
       -0.43179410631874526 0.26249684710187865
000030 69 1f dc 02 b5 1c c8 3f 85 47 52 ca ce b2 e5 3f
       0.18837607040063212 0.6780771209325712
000040 73 e9 a3 31 5f fb d3 3f 69 c3 64 36 99 b3 ec bf
       0.31221752021487886 -0.8969236433386928
000050 17 8c 2a 09 21 d8 d7 3f 6b 5f f8 46 c2 b9 e5 bf
       0.37256647009979943 -0.6789256464135013
000060 2a 63 48 08 42 12 e0 3f a6 49 d4 3a 1f 1d db 3f
       0.50222875230529 0.4236524652962096
000070 34 00 fa 54 06 6a 68 bf 7c 9f 37 7e 60 8e e9 bf
       -0.002980244032926316 -0.7986299958401868

2.bias f8 [16]
000000 73 94 28 c0 14 55 ec 3f eb ba 0b fc 07 f4 eb 3f
       0.8853858712287902 0.8735389635820331
000010 65 1c 49 cc a3 73 f3 3f 00 00 00 e0 fa 36 bf bf
       1.215732381811699 -0.12193267792463303
000020 00 00 00 00 00 00 00 00 81 c0 f1 fd e6 47 d8 3f
       0.0 0.3793885688710433
000030 9a 25 5c a3 dd 67 f2 3f 41 32 32 c8 a3 4c d6 bf
       1.150357854962158 -0.34842772055052157
000040 a3 42 8c 9e 25 09 dc 3f e0 ff 0c f0 21 73 f8 3f
       0.43805828555290754 1.5281085373862808
000050 35 5c 68 6d 68 ef ef 3f fa ba c2 2e 3c 8c e7 bf
       0.9979745995395947 -0.735868541078019
000060 b7 ae 4e 5f 9d 73 a5 bf 64 3e a6 dd b1 25 b6 bf
       -0.04189769543094484 -0.08651267682420777
000070 97 7d 26 ef eb 4c ea 3f 71 11 42 55 e9 7d e6 3f
       0.8218898459344243 0.7028700509259079

4.bias f8 [16]
000000 87 fe 01 0b f5 3d d7 3f 41 8f 7f 32 77 02 db bf
       0.36315656733493323 -0.4220254891536009
000010 39 6d 76 b4 ec 58 f5 3f fb 99 9b 15 27 80 f2 3f
       1.3342101144142602 1.1562872737937357
000020 27 6c d3 87 62 d2 fa 3f 4c 1f 1d d0 63 98 e3 3f
       1.6763634973238 0.6123522820207454
000030 62 a1 5f f2 1a ae c0 3f 66 83 92 a5 3d 91 f2 3f
       0.13031327089926054 1.1604591815632488
000040 74 05 7a d3 00 46 e4 3f 70 77 1c c3 f8 dc fd 3f
       0.6335453157809483 1.8664481755763198
000050 8f 32 08 86 00 af d9 bf 69 f3 cb e2 f0 06 f3 3f
       -0.4013062771707973 1.18919457046942
000060 00 00 00 e0 f2 a1 c4 bf 31 e2 00 f5 bd e5 fb 3f
       -0.16119228303432465 1.7435893602797814
000070 f4 fd ce 20 e3 2c e8 3f e5 dc 49 64 29 fe f0 3f
       0.7554793968956219 1.0620511930008487

6.bias f8 [2]
000000 71 0d 23 08 c3 ef fa 3f 48 fc 5c 0e 16 8a f7 3f
       1.6835356061791027 1.4712124405921418
