rocket-lander_with_acceleration_over_approximation/network_repairing/models/acasxu_epoch185.pt (torch, 8144 bytes, 4 tensors)

0.bias f8 [16]
0	0xbfa742023d2592a7	-0.045425481762128066
1	0xbfd97c8d34360010	-0.39822702501987894
2	0xbf4d0d48ce783f2c	-0.0008865933895680681
3	0x3fea3d0b4daaa4c3	0.8199516789365123
4	0xbfdc18a485859b88	-0.4390040687489365
5	0x3fd1c0ceea72ec9b	0.27739308257486933
6	0x3fc7785253a38e79	0.1833594234841376
7	0x3fe6147941fa1feb	0.6899992264379738
8	0x3fd3ebdd3e209caf	0.311271010085373
9	0xbfead1f9175eeda0	-0.8381314712964247
10	0x3fd7b676bf016a5b	0.3705117097175951
11	0xbfe5ea3c5e125468	-0.6848432385765024
12	0x3fe0497080845a89	0.5089647779557974
13	0x3fdbf750a8db6b3e	0.436969914340512
14	0xbf637179e96eb7b0	-0.0023734456148849156
15	0xbfe9b0594d3afb9f	-0.8027769573599136

2.bias f8 [16]
0	0x3fecee5a76de63a0	0.90409587112946
1	0x3fec7b3de7b1bd60	0.8900441670684067
2	0x3ff385cdc18dc261	1.22016692740376
3	0xbfbf36fae0000000	-0.12193267792463303
4	0x0000000000000000	0.0
5	0x3fdac2eae8f1a771	0.41814682720597945
6	0x3ff27ea9c03ad072	1.1559236058210698
7	0xbfd6659dff6aaacb	-0.34995222037347834
8	0x3fdbfd8287720570	0.43734801508988763
9	0x3ff878da36335a8b	1.5295049779139471
10	0x3ff014df47b4a366	1.0050957489968027
11	0xbfe7b97bcf105069	-0.7413920444692056
12	0xbfaec8f22662328a	-0.06012684553670507
13	0xbfb625b1dda63e64	-0.08651267682420777
14	0x3fea81d42540555c	0.8283482291759969
15	0x3fe63f648d883cae	0.6952383770275412

4.bias f8 [16]
0	0x3fd5a3490ce0cdac	0.33809114701872534
1	0xbfe28242abd14c79	-0.5784009319126105
2	0x3ff56848c973e2dc	1.337960040020497
3	0x3ff294829f0a7219	1.1612573826342951
4	0x3ffa746cd1eeb7a1	1.6534240913856382
5	0x3fe9aa3009ec0221	0.8020248597895866
6	0x3fbd31ab1069b25c	0.11403912687974
7	0x3ff2a4bee2f7122c	1.1652211061310807
8	0x3fe8351628f74cae	0.7564802932851273
9	0x3ffd94b4dddfea75	1.8488053004245135
10	0xbfd9af008608328f	-0.4013062771707973
11	0x3ff3281dbc26d9d2	1.1972939824751063
12	0xbfc4a1f2e0000000	-0.16119228303432465
13	0x3ffc007d73c041a4	1.750119640495634
14	0x3fe6795ed072d5bb	0.7023157187710959
15	0x3ff22d8197b0012d	1.1361099171918554

6.bias f8 [2]
0	0x3ffa332655627f06	1.637487729582007
1	0x3ff7fc2803d416f5	1.4990615987348381
