rocket-lander_with_acceleration_over_approximation/network_repairing/models/acasxu_epoch209.pt (torch, 8144 bytes, 4 tensors)

0.bias f8 [16]
000000 d1 0d 0e 34 1a e9 a6 bf 9a 38 c4 57 1c 5d d9 bf
       -0.04474717984615107 -0.39630802699037704
000010 a3 9b 12 15 88 e2 5b bf 68 3b 70 b3 cb 4a ea 3f
       -0.0017019585541590907 0.8216303352981926
000020 f1 b6 c3 35 c2 70 dc bf 66 e5 af db d5 f9 d1 3f
       -0.4443822407764478 0.2808737416631487
000030 19 23 a4 3d 23 46 c7 3f 2b 2f 39 58 79 3a e6 3f
       0.18182793149778645 0.6946379397499859
000040 f2 e7 dc 04 88 ef d3 3f fe 01 66 b6 0b 83 ea bf
       0.3114948317994496 -0.8284967958898617
000050 96 a8 c0 eb 83 9e d7 3f 22 a3 91 df 96 ff e5 bf
       0.369050007083055 -0.6874498716907491
000060 41 62 c1 3a 52 56 e0 3f 50 c8 69 41 13 4d dc 3f
       0.5105372569624437 0.44220429790505467
000070 c4 d6 25 56 73 63 65 bf 0e 32 f3 08 35 bb e9 bf
       -0.0026108982721620728 -0.8041024374775263

2.bias f8 [16]
000000 4d e3 60 97 f5 18 ed 3f 09 44 ff af 6f a7 ec 3f
       0.9092967945681295 0.8954389989322645
000010 ba 4c 6e a3 25 8b f3 3f 00 00 00 e0 fa 36 bf bf
       1.2214714416520978 -0.12193267792463303
000020 00 00 00 00 00 00 00 00 2a 93 5e a0 4a b9 db 3f
       0.0 0.4331842962367768
000030 6f 33 eb 25 72 84 f2 3f bc 74 4d 28 74 40 d6 bf
       1.157335422630435 -0.34768394408986203
000040 bd 93 fa fd 1b 01 dc 3f c1 9c a2 6d 98 7c f8 3f
       0.4375677089940913 1.530418804419057
000050 01 99 07 c7 45 1a f0 3f 95 17 3b b7 7a d8 e7 bf
       1.006414201221162 -0.7451757029273148
000060 07 0e af 0a f9 6e b2 bf 64 3e a6 dd b1 25 b6 bf
       -0.07200581084094192 -0.08651267682420777
000070 9e 80 d5 f8 43 93 ea 3f 6a 41 6c fd dd 33 e6 3f
       0.8304767475165311 0.6938314389863482

4.bias f8 [16]
000000 e1 4f 7e 9f 86 0d d5 3f 4c 4a a6 29 f5 f3 e3 bf
       0.32895055366065945 -0.6235299886196315
000010 83 12 3f 9e 85 6b f5 3f f3 39 30 7d 1b a1 f2 3f
       1.3387504750727721 1.1643328561946162
000020 51 f8 1d ba 4e 59 fa 3f af 0f 70 62 df 80 eb 3f
       1.646803595561796 0.8594815180408569
000030 30 c5 ea 4e 7e d7 bb 3f b9 5f 25 d4 0e ae f2 3f
       0.10875691820799172 1.167494610495835
000040 52 a0 da 16 1e 82 e9 3f 16 75 bc 68 26 81 fd 3f
       0.7971334883086547 1.84403077042163
000050 8f 32 08 86 00 af d9 bf f1 42 2a 75 19 34 f3 3f
       -0.4013062771707973 1.2002195908318607
000060 00 00 00 e0 f2 a1 c4 bf be 24 71 73 24 0a fc 3f
       -0.16119228303432465 1.75247616858023
000070 ae f4 50 76 aa e4 e5 3f fe a1 3b 81 08 a6 f2 3f
       0.684163313948053 1.165535454574751

6.bias f8 [2]
000000 08 50 9d 97 06 fb f9 3f cf 3b 4b 5a 04 25 f8 3f
       1.6237855837289334 1.5090373541931859
