rocket-lander_with_acceleration_over_approximation/network_repairing/models/acasxu_epoch170.pt (torch, 8144 bytes, 4 tensors)

0.bias f8 [16]
-0.04663906853096493 -0.39702576769076203 -0.0007565609560860491 0.8187198496368662 -0.4391783872462245 0.2747712841382029 0.18535223986215169 0.687272184082699
0.3109789450722974 -0.8464427293815742 0.37001126137660684 -0.6838631406818964 0.5075997902607002 0.43327799961722574 -0.003187772996526812 -0.8020725967231488
00000000: 16e0 1c74 13e1 a7bf e4ab f9c3 de68 d9bf
00000010: 9341 2b48 7eca 48bf 16d8 58f8 f332 ea3f
00000020: a048 95aa 7f1b dcbf 6d39 d04b da95 d13f
00000030: 8961 3948 9fb9 c73f ecbd 423c 22fe e53f
00000040: 5220 b53b 14e7 d33f d62f 1410 0f16 ebbf
00000050: 37e9 b0b6 43ae d73f 1b65 05f4 34e2 e5bf
00000060: 8f09 54ea 413e e03f 8faa 9ba5 d3ba db3f
00000070: c387 8c98 3e1d 6abf f632 7e26 94aa e9bf

2.bias f8 [16]
0.9019317369313183 0.8869728252077393 1.2193448023994082 -0.12193267792463303 0.0 0.40931869723314235 1.1545506701495862 -0.3506062840201666
0.4377488935140745 1.5292191989602197 1.0032285899159616 -0.7397205199048585 -0.054830907472342295 -0.08651267682420777 0.826562908094308 0.6958265206074676
00000000: 0b06 2bf2 9fdc ec3f a6a7 96d5 1462 ec3f
00000010: 0ea6 0db2 6f82 f33f 0000 00e0 fa36 bfbf
00000020: 0000 0000 0000 0000 b37d 900c 4732 da3f
00000030: b1e0 9d1f 0a79 f23f 82e0 e856 5570 d6bf
00000040: 6333 60ef 1304 dc3f fe30 ff8c ae77 f83f
00000050: b99e 016c 390d f03f cd7c 255e caab e7bf
00000060: 5db3 cef4 cb12 acbf 643e a6dd b125 b6bf
00000070: 2e41 4b0e 3473 ea3f 785a b6fa 3544 e63f

4.bias f8 [16]
0.34401429525317695 -0.5459322116871137 1.33727839020239 1.1600677921908726 1.658093597193708 0.7647284873989704 0.11797492535632217 1.164197818455448
0.7310549940623261 1.85236135631838 -0.4013062771707973 1.195728043369086 -0.16119228303432465 1.74918836468671 0.7124558566516492 1.1197927222649258
00000000: 2e02 de88 5404 d63f 68ee 60d4 4678 e1bf
00000010: 9411 7906 7e65 f53f c0a4 c93e a38f f23f
00000020: ad76 da26 8d87 fa3f 0c57 76e0 a778 e83f
00000030: 2a48 27ce 9a33 be3f 7c73 45e4 8da0 f23f
00000040: c067 6271 cd64 e73f b32f 5ca9 45a3 fd3f
00000050: 8f32 0886 00af d9bf 7ce2 92ba b321 f33f
00000060: 0000 00e0 f2a1 c4bf 62f8 4df0 acfc fb3f
00000070: 2e33 8539 70cc e63f a1d3 06c6 abea f13f

6.bias f8 [2]
1.646354020603469 1.4937335911772718
00000000: 8514 4250 7757 fa3f 32b0 b031 55e6 f73f
