rocket-lander_with_acceleration_over_approximation/network_repairing/models/acasxu_epoch60.pt (torch, 8144 bytes, 4 tensors)

0.bias f8 [16]
0	0xbfa997c200a33886	-0.04998594529898619
1	0xbfd87c01bee2bd6b	-0.3825687755697433
2	0x3f3b2d1e19a255ab	0.00041467652193579824
3	0x3fe9ec0c2e206aca	0.8100644017134411
4	0xbfdad4031a2bd5f7	-0.41919019275459796
5	0x3fcfe7dce7666402	0.24926339434458106
6	0x3fc8e12928b563bf	0.1943713616153939
7	0x3fe5753c6d6264e0	0.6705610405362243
8	0x3fd3e5c51bd257a1	0.31089904515226335
9	0xbfee80f6b0bf6eca	-0.953242631159321
10	0x3fd8520eaf5a1a43	0.3800083839818493
11	0xbfe581530a768689	-0.6720366672854691
12	0x3fdfcced9c506c53	0.4968828226571464
13	0x3fdadd94b8fc625d	0.41977422776247925
14	0xbf6d00f1a1fbe186	-0.0035404891385690277
15	0xbfe974744eadf5ff	-0.7954656159124055

2.bias f8 [16]
0	0x3feb9f9fdadabb87	0.8632354044437854
1	0x3feb758a69fc53c3	0.8580982275039947
2	0x3ff36e1479ffb104	1.2143749967172548
3	0xbfbf36fae0000000	-0.12193267792463303
4	0x0000000000000000	0.0
5	0x3fd6b747eae61ad2	0.35493658007946494
6	0x3ff2671b980eaf4c	1.1501728000393596
7	0xbfd57fb66c8f452d	-0.33591995812919856
8	0x3fdbddead05197c9	0.43541975349068857
9	0x3ff86e2ebac50475	1.5269000335395309
10	0x3fefe36c36ae7f20	0.9965115612030537
11	0xbfe796ac9bc4ae44	-0.7371428530072497
12	0xbfa590fa39a8ad4a	-0.042121715105475646
13	0xbfb625b1dda63e64	-0.08651267682420777
14	0x3fea3a77f2e6c4d0	0.8196372741860163
15	0x3fe6ae923071bb69	0.7088099428345745

4.bias f8 [16]
0	0x3fd71a2f1f9c71f5	0.3609731491758617
1	0xbfd55f2500192bd2	-0.33393216142274895
2	0x3ff547b90bba8df4	1.3300104578164538
3	0x3ff2777ed20692dd	1.1541736797454896
4	0x3ffb1386acbee5f4	1.692267107761265
5	0x3fde1ea4aea2ec61	0.47062031797731235
6	0x3fc1a580737750d7	0.13786321294776968
7	0x3ff28c4a18f6b594	1.159250352396474
8	0x3fe25007a409f48e	0.5722692684063462
9	0x3ffe12a47d419777	1.8795514004536622
10	0xbfd9667b78f80026	-0.3968800240836593
11	0x3ff2ecfe2e4f4afd	1.1828595932935848
12	0xbfc4a1f2e0000000	-0.16119228303432465
13	0x3ffbd5a3f3827664	1.7396583091825955
14	0x3fe9005aa7fab863	0.7812932282302082
15	0x3ff0423b4fc878bc	1.0161698452498475

6.bias f8 [2]
0	0x3ffb76cb9cb1995c	1.7165027733659235
1	0x3ff7456532061c2d	1.454442210584385
