rocket-lander_with_acceleration_over_approximation/network_repairing/models/acasxu_epoch42.pt (torch, 8144 bytes, 4 tensors)

0.bias f8 [16]
000000 fd 9d 7b 27 2b 56 a9 bf 38 26 a6 4f 97 60 d8 bf
       -0.04948553902596229 -0.38089545038437533
000010 df bf f1 5e af a8 32 3f 2f f2 96 32 23 e1 e9 3f
       0.00028471261516127376 0.8087326038435715
000020 f7 77 59 03 91 44 da bf d1 e5 ca 8d 3e 51 cf 3f
       -0.41043496443842237 0.24466688083138746
000030 ef ed e2 73 9a 8a c9 3f 2e 67 0c 80 71 65 e5 3f
       0.19954233797567109 0.6686332226702001
000040 0b 59 ac 54 25 cc d3 3f 86 6e a2 fc 17 45 ef bf
       0.30933507222052076 -0.9771842893855627
000050 55 28 ea 89 a9 a2 d8 3f 3a 2f 5b 7d a4 6a e5 bf
       0.3849281164954211 -0.6692678879130434
000060 fb be 3b 1a 15 af df 3f 8f b2 7d 41 05 fc da 3f
       0.4950611835656528 0.4216321124611477
000070 0b a4 cf 31 ec 10 72 bf d0 11 ac 88 02 6a e9 bf
       -0.004410669932419796 -0.7941906613710277

2.bias f8 [16]
000000 a7 b2 4e 39 df 37 eb 3f d1 3b bb 7a c5 39 eb 3f
       0.8505703086171551 0.8508021733376784
000010 75 c3 78 ef 29 6f f3 3f 00 00 00 e0 fa 36 bf bf
       1.2146396021236943 -0.12193267792463303
000020 00 00 00 00 00 00 00 00 e7 b4 40 13 ea 56 d6 3f
       0.0 0.3490548313155401
000030 15 1c ff 83 7f 67 f2 3f 7e 0a 62 cf 1c 32 d5 bf
       1.1502680927385474 -0.3311836266731588
000040 fe c1 79 ec 15 d5 db 3f 0d ed 0c b6 ca 6a f8 3f
       0.434880715306491 1.5260722266528461
000050 1f 4e 9f 93 8f e3 ef 3f 00 64 f2 d2 0b d7 e7 bf
       0.9965284236190576 -0.7450007553153455
000060 fa ca 9d 97 4c 4e a6 bf 64 3e a6 dd b1 25 b6 bf
       -0.043566125400408454 -0.08651267682420777
000070 44 4b 62 40 8b 3e ea 3f 84 8c e4 db 91 b8 e6 3f
       0.8201347596644628 0.7100304884701392

4.bias f8 [16]
000000 2d 04 50 03 ad a7 d6 3f 08 60 b1 b2 f8 66 d3 bf
       0.35398412059299994 -0.3031598801658224
000010 92 ca 67 ab 18 41 f5 3f 44 f7 db 02 cb 73 f2 3f
       1.3283926673435968 1.153269778412736
000020 3c 58 ef 77 d4 27 fb 3f fa 42 93 9b 7f 4a db 3f
       1.697224110122547 0.42642202561277964
000030 3b 4c 67 0d 00 ab c1 3f b4 f1 e0 b3 6f 87 f2 3f
       0.1380310121008693 1.1580655123244528
000040 b5 6a 64 f6 8f c0 e1 3f 97 8e e0 a0 3a 25 fe 3f
       0.5547561466549583 1.8840891155495336
000050 26 00 f8 78 7b 66 d9 bf 74 44 cb 89 f4 e2 f2 3f
       -0.3968800240836593 1.180408991105904
000060 00 00 00 e0 f2 a1 c4 bf 4f 53 4d e5 ca d1 fb 3f
       -0.16119228303432465 1.7387188870536254
000070 87 fa 79 b2 5c 15 e9 3f a1 69 84 4a 4f f8 ef 3f
       0.7838576780194025 0.9990612464346676

6.bias f8 [2]
000000 e9 fd b5 fb b8 a2 fb 3f 92 d5 11 2d b2 2e f7 3f
       1.7272271950204134 1.4489003906759064
