rocket-lander_with_acceleration_over_approximation/network_repairing/models/acasxu_epoch80.pt (torch, 8144 bytes, 4 tensors)

0.bias f8 [16]
00000000: 80f2 0cb6 ee48 a9bf 2289 08a2 8ccd d8bf
00000010: d4c6 faf8 9aa2 2e3f b3ca 4353 33f8 e93f
00000020: f040 6724 e75e dbbf 6384 a630 3756 d03f
00000030: 7218 1748 9da1 c83f 99d0 278f c98d e53f
00000040: fd32 d450 14f1 d33f 2b39 1071 adc3 edbf
00000050: c28b ab5d 5623 d83f 18d1 7d31 b29c e5bf
00000060: 6f31 1852 99ef df3f 0a1d 3a52 9bf2 da3f
00000070: 2f84 2551 7bf8 71bf 0b83 902d d97f e9bf
-0.04938455555245458 -0.3875457365376339 0.00023372785334667987 0.811547911287866 -0.4276674132825198 0.25526218176862 0.1924320795062076 0.6735580249792462
0.3115893163056141 -0.9301364143628111 0.3771568217036326 -0.67537793794921 0.49899895684281764 0.4210575392721273 -0.0043873612470131515 -0.7968564882213242

2.bias f8 [16]
00000000: 6a15 12b1 51ee eb3f fb39 a359 67a8 eb3f
00000010: 75ff af65 0a6e f33f 0000 00e0 fa36 bfbf
00000020: 0000 0000 0000 0000 ce32 e250 6d4d d73f
00000030: 1ccf 067a 0c67 f23f db81 8b7a f6ec d5bf
00000040: 759e d94e 14f4 db3f 60a2 2bb0 4070 f83f
00000050: 0e67 ce37 54e2 ef3f 5135 3cd6 7083 e7bf
00000060: 8baf 9c86 06fd a3bf 643e a6dd b125 b6bf
00000070: de2c 3f90 5641 ea3f 22f4 e18f 4699 e63f
0.8728416880045817 0.8643070936903422 1.2143653843085904 -0.12193267792463303 0.0 0.36410076998508323 1.1501583830512976 -0.3425880619743375
0.43677241993143606 1.5274054414423048 0.9963780488935485 -0.7347950157433535 -0.039039806301246115 -0.08651267682420777 0.8204758469886675 0.7062104044158597

4.bias f8 [16]
00000000: 2468 5648 4651 d73f 2684 df04 f990 d7bf
00000010: 8330 7ede 024f f53f 0e48 e8c5 f07a f23f
00000020: d0a6 60b7 14fc fa3f 04de 8619 5bb3 e03f
00000030: 5cbc 04da b271 c13f b87d bd36 e58e f23f
00000040: 03c6 f675 4df7 e23f 0b69 72c4 0bfe fd3f
00000050: 8f32 0886 00af d9bf 44e5 4101 88f6 f23f
00000060: 0000 00e0 f2a1 c4bf 3004 8d4d 29db fb3f
00000070: 77a3 8183 3fce e83f be22 3585 9e88 f03f
0.3643356043263586 -0.3682234332646338 1.331789845574378 1.1550147753482665 1.6865431941209188 0.5218940256663136 0.13628230710444 1.1598865640915914
0.5926883033736775 1.8745229409892683 -0.4013062771707973 1.1851882981412283 -0.16119228303432465 1.7410061864213837 0.7751767700657258 1.0333543017788283

6.bias f8 [2]
00000000: 1de6 5dca 4644 fb3f cda8 f480 285e f73f
1.7041690735771973 1.460487846120077
