rocket-lander_with_acceleration_over_approximation/network_repairing/models/acasxu_epoch168.pt (torch, 8144 bytes, 4 tensors)

0.bias f8 [16]
0	0xbfa7e4f07512978b	-0.04666854313954535
1	0xbfd95d8dc867f525	-0.3963350731936138
2	0xbf455ef298904011	-0.000652187781385651
3	0x3fea3134a933eff2	0.8185065560096503
4	0xbfdc037d098e5211	-0.4377129166908001
5	0x3fd19566bba664be	0.2747437317389759
6	0x3fc7c4955aa5908b	0.18568674970731922
7	0x3fe5fb10e6f703e9	0.6868977080376882
8	0x3fd3e57111de5ff6	0.3108790087221672
9	0xbfeb1f63313672ba	-0.8475814782319369
10	0x3fd7be7429c33394	0.3709993751370402
11	0xbfe5e0dd1eb7250f	-0.6836991882238709
12	0x3fe03ce7641a4c05	0.5074345545893953
13	0x3fdbb57c7f9762b4	0.432952046013763
14	0xbf699fc0c6cbac44	-0.003127933994951289
15	0xbfe9a8a9e7ad79a1	-0.8018388295129634

2.bias f8 [16]
0	0x3fecd6300f61504d	0.9011459637063212
1	0x3fec5e2d7d46d374	0.8864963003930897
2	0x3ff381af82ab5002	1.2191615204110353
3	0xbfbf36fae0000000	-0.12193267792463303
4	0x0000000000000000	0.0
5	0x3fda1facab8815cd	0.40818325759059065
6	0x3ff278024e346e8b	1.1542990736842593
7	0xbfd6745df33e9542	-0.35085247759191784
8	0x3fdc046365219247	0.4377678382500431
9	0x3ff87734d5c7b8d6	1.5291031218326245
10	0x3ff00c04c123e6c0	1.0029342217007269
11	0xbfe7af167b859f3c	-0.7401230251825619
12	0xbfabe09f9643bf03	-0.054448115437365295
13	0xbfb625b1dda63e64	-0.08651267682420777
14	0x3fea6de0ee2efa48	0.8259129192372905
15	0x3fe647a33f9e6406	0.6962448351433757

4.bias f8 [16]
0	0x3fd609b386772257	0.34434211856254165
1	0xbfe15ea69281bf8c	-0.5428040372334961
2	0x3ff5649a0936083b	1.3370609626586105
3	0x3ff28eadc0b9488c	1.1598336723587037
4	0x3ffa8970d83063c0	1.658554882515304
5	0x3fe852421aab829c	0.7600412865541162
6	0x3fbe6440776f4586	0.11871722141156313
7	0x3ff29f901f7c1572	1.1639558057662183
8	0x3fe74d1b8e86a6b4	0.728162554141099
9	0x3ffda4d45813d6f3	1.8527415695693292
10	0xbfd9af008608328f	-0.4013062771707973
11	0x3ff320a689664717	1.1954713217896307
12	0xbfc4a1f2e0000000	-0.16119228303432465
13	0x3ffbfb828da88c43	1.7489038022547596
14	0x3fe6d947163ef19a	0.7140231546869018
15	0x3ff1e0f56caa54bb	1.1174215550175137

6.bias f8 [2]
0	0x3ffa5c4fabbcac4b	1.647536917541191
1	0x3ff7e2969ed04c3c	1.4928194240244599
