rocket-lander_with_acceleration_over_approximation/network_repairing/models/acasxu_epoch69.pt (torch, 8144 bytes, 4 tensors)

0.bias f8 [16]
00000000: 4985 879e 8b7e a9bf bc85 d6ca 3b94 d8bf
00000010: 4819 d35d 3196 403f fd4c 029c 7ff1 e93f
00000020: 1644 4652 6320 dbbf 0e94 f817 e91d d03f
00000030: 7657 79cd a4a0 c83f 8ef9 353b 2e7e e53f
00000040: c170 6c2a 19f3 d33f 1103 1810 9327 eebf
00000050: 12cf be5f 7d40 d83f 8584 5493 dc8c e5bf
00000060: ecd2 559c d0da df3f 0742 f305 d1e2 da3f
00000070: 0b72 5a40 d922 6cbf e80c 1dac 797f e9bf
-0.04979358968899789 -0.384047458728755 0.0005061856315016567 0.8107297942209751 -0.42385180506340825 0.2518255933849226 0.1924024585047694 0.6716529041730597
0.3117125429432797 -0.9423308672267884 0.3789361414921909 -0.6734450223485885 0.49773040072550034 0.42009378033711225 -0.003434585875608192 -0.7968109475699778

2.bias f8 [16]
00000000: 5e28 a9d2 12cb eb3f 2fc8 ba2f 6390 eb3f
00000010: 98cd 0a55 e16c f33f 0000 00e0 fa36 bfbf
00000020: 0000 0000 0000 0000 a95e b7c0 25fd d63f
00000030: c974 7a62 0867 f23f 1904 6381 37ab d5bf
00000040: e8cf 5476 4dea db3f a006 3c03 aa6f f83f
00000050: 55ae 4386 73e2 ef3f d46c de07 b084 e7bf
00000060: 1815 a847 908b a4bf 643e a6dd b125 b6bf
00000070: 2937 2433 2a38 ea3f 1ab0 619d 88a4 e63f
0.8685392488926131 0.8613754207820018 1.2140820810280726 -0.12193267792463303 0.0 0.3592008954997064 1.1501544806299526 -0.33857524524143084
0.43617569499769937 1.5272617460581515 0.9963929769850873 -0.7349472192467155 -0.04012728571619045 -0.08651267682420777 0.8193560599190494 0.707584674249577

4.bias f8 [16]
00000000: 04fc e246 3141 d73f 989d 22cf 3676 d6bf
00000010: ce18 de04 4a4b f53f afa8 22d7 0b79 f23f
00000020: c5e0 6180 be09 fb3f a300 a7ad 8396 df3f
00000030: 5775 e048 b39b c13f eb49 a544 fa8d f23f
00000040: 484b fb22 90a4 e23f 46b6 ded4 e009 fe3f
00000050: 636d ec85 00af d9bf 2227 555c 24f2 f23f
00000060: 0000 00e0 f2a1 c4bf 5daf f19c 0ad8 fb3f
00000070: 0a8d 98c6 38ef e83f 89ee 6171 2b63 f03f
0.36335403368497077 -0.35096521595047525 1.3308811369075104 1.1545523074842483 1.6898789420065878 0.4935616679977192 0.13756409700810465 1.1596625024291096
0.5825882609591213 1.8774116816743045 -0.4013062770697699 1.1841167074912353 -0.16119228303432465 1.7402444964054304 0.779201877482053 1.0242113522535041

6.bias f8 [2]
00000000: eb78 cebb 5e61 fb3f 4c54 66f1 2250 f73f
1.711271985644596 1.4570645742108068
