rocket-lander_with_acceleration_over_approximation/network_repairing/models/acasxu_epoch66.pt (torch, 8144 bytes, 4 tensors)

0.bias f8 [16]
000000 a4 8a 85 83 a1 96 a9 bf d8 d2 d3 33 6c 8d d8 bf
       -0.04997734766472675 -0.3836317545058541
000010 63 a5 f7 ff 2d 97 35 3f 15 69 34 6d 15 f0 e9 3f
       0.00032944558185351284 0.8105570919899799
000020 08 38 17 48 1a 20 db bf 05 b7 5b 1f 2f 11 d0 3f
       -0.4238343910227518 0.2510488325341245
000030 be 83 90 7b 02 9f c8 3f 17 64 86 79 da 7b e5 3f
       0.192352590879663 0.6713688252958744
000040 00 2b bd de fd ee d3 3f 5d 5b 37 81 bd 41 ee bf
       0.3114618945298133 -0.945524933219399
000050 3b d8 6d 90 c1 43 d8 3f c3 ae 46 55 6a 89 e5 bf
       0.37913550476457986 -0.6730243363903913
000060 2e 84 cb 44 c3 d5 df 3f 0c 15 f5 4c de dc da 3f
       0.49742204397449796 0.4197307349716801
000070 d8 06 62 e7 28 ea 6c bf e5 36 7b 35 04 7e e9 bf
       -0.0035296248343577967 -0.7966328663403287

2.bias f8 [16]
000000 5f c5 53 e0 42 bb eb 3f 3b 0e 25 4a 32 87 eb 3f
       0.8666090375319689 0.8602534721507661
000010 a2 67 bc c6 3e 6d f3 3f 00 00 00 e0 fa 36 bf bf
       1.2141711962817472 -0.12193267792463303
000020 00 00 00 00 00 00 00 00 39 85 b1 d4 dc e2 d6 3f
       0.0 0.3575965954861036
000030 bd 88 be 3d 46 67 f2 3f 32 51 f7 d4 3b 9b d5 bf
       1.1502134715924932 -0.33759971425503743
000040 b8 1c d6 ac 86 e7 db 3f d3 52 a0 e9 98 6f f8 3f
       0.436006230149768 1.5272454381967477
000050 03 82 e0 13 39 e3 ef 3f 1f 49 66 f2 72 86 e7 bf
       0.9964871776792851 -0.7351622328153872
000060 b3 ea 60 b2 f4 d0 a4 bf 64 3e a6 dd b1 25 b6 bf
       -0.04065670659516254 -0.08651267682420777
000070 be 38 1f aa ae 36 ea 3f b1 31 73 b3 9a a5 e6 3f
       0.8191750834173701 0.7077153687364924

4.bias f8 [16]
000000 de 99 62 d6 92 2a d7 3f 3b f3 4b 0d 48 33 d6 bf
       0.3619734853367883 -0.3468799714899437
000010 3c 49 bb dc 7c 4a f5 3f 01 a5 de b4 1f 79 f2 3f
       1.330685484154471 1.1545712533209669
000020 8b ce 3f 58 5a 0d fb 3f 16 23 d0 db 48 24 df 3f
       1.690759987567534 0.48658963647953735
000030 f5 21 97 4b fa 9f c1 3f 09 6b 60 c0 a6 8d f2 3f
       0.13769463244376792 1.1595828547203288
000040 34 a8 7a ea 2a 8e e2 3f d4 92 97 98 28 0d fe 3f
       0.5798544482870569 1.878212543547467
000050 8d 38 9a b9 ff ae d9 bf 98 49 e2 6c 9a f0 f2 3f
       -0.4013060867808996 1.183741021468995
000060 00 00 00 e0 f2 a1 c4 bf ef a4 16 23 c2 d7 fb 3f
       -0.16119228303432465 1.7401753779070608
000070 26 51 38 4f 4e f7 e8 3f 9b 08 00 f3 58 59 f0 3f
       0.7801887080445666 1.0218133442108754

6.bias f8 [2]
000000 51 81 af 9a 89 68 fb 3f 68 27 0c 0e 57 4d f7 3f
       1.7130218546299896 1.4563818501214545
