rocket-lander_with_acceleration_over_approximation/network_repairing/models/acasxu_epoch203.pt (torch, 8144 bytes, 4 tensors)

0.bias f8 [16]
-0.04478375770008257 -0.3982293064797763 -0.0013922323014688971 0.8210963070485121 -0.44237409804736005 0.27949562971067704 0.18172625706821094 0.6932445522509059
0.31116420594511107 -0.8315013773865104 0.3687885947445775 -0.6864926209637648 0.509950495203575 0.44123928203540264 -0.0024047742133147245 -0.8038190536906537
00000000: ce7c 6d8d e5ed a6bf eeeb e8c5 967c d9bf
00000010: f9f1 010d 72cf 56bf b378 34c3 6b46 ea3f
00000020: 887f ed72 db4f dcbf bddd 3ea3 41e3 d13f
00000030: ae5a 7755 ce42 c73f 9c87 0133 0f2f e63f
00000040: 7a15 0e46 1dea d33f 4d87 cec6 a89b eabf
00000050: 6035 647a 3b9a d73f 9d82 7f5f bff7 e5bf
00000060: b94e 6fb3 8351 e03f 625d 83af 433d dc3f
00000070: bee4 3653 2db3 63bf c918 70bc e2b8 e9bf

2.bias f8 [16]
0.9077847704336917 0.8936383821761713 1.2210580499791053 -0.12193267792463303 0.0 0.42890841868221075 1.1569962362339903 -0.34784679099131255
0.43760983015039284 1.5301047648377695 1.0061386310280354 -0.7439084311343056 -0.06935860576216685 -0.08651267682420777 0.8301514118813524 0.6940953586089773
00000000: f239 9aa5 920c ed3f 44b4 3c85 af98 ec3f
00000010: 3bd8 722a 7489 f33f 0000 00e0 fa36 bfbf
00000020: 0000 0000 0000 0000 e406 ce4b 3c73 db3f
00000030: 7185 437c 0e83 f23f 08e1 d42f 1f43 d6bf
00000040: fddb 39a9 cc01 dc3f 6fe9 4622 4f7b f83f
00000050: 391f 38d2 2419 f03f aa18 de0d 19ce e7bf
00000060: 7cd5 714f 7cc1 b1bf 643e a6dd b125 b6bf
00000070: bc46 98b1 9990 ea3f 8afd 3078 0736 e63f

4.bias f8 [16]
0.3306808487719731 -0.6130354769136108 1.3386070863671784 1.1635091319835515 1.648218786064017 0.8453734969771125 0.10986012870836724 1.166707206674848
0.7869393372775171 1.8451023607693176 -0.4013062771707973 1.1992914762956535 -0.16119228303432465 1.7517888213305932 0.687895543712746 1.1580260154108586
00000000: c6e7 b801 e029 d53f 1037 9493 fc9d e3bf
00000010: 0a41 a243 ef6a f53f 9c77 67c0 bb9d f23f
00000020: aec3 6ca9 1a5f fa3f d27f 4db8 4c0d eb3f
00000030: 57d1 ef1b cb1f bc3f d6d0 0a2d d5aa f23f
00000040: 065f b167 9b2e e93f 016d 940d 8a85 fd3f
00000050: 8f32 0886 00af d9bf 75fb 5042 4c30 f33f
00000060: 0000 00e0 f2a1 c4bf 04d0 11b7 5307 fc3f
00000070: a7ee e983 3d03 e63f 93b5 8149 4687 f23f

6.bias f8 [2]
1.6271102575667427 1.5064221390003396
00000000: c6c3 f3c3 a408 fa3f 13a1 cf19 4e1a f83f
