rocket-lander_with_acceleration_over_approximation/network_repairing/models/acasxu_epoch232.pt (torch, 8144 bytes, 4 tensors)

0.bias f8 [16]
000000 32 b5 84 8b 42 03 a6 bf f3 a6 2b a5 1b 94 d9 bf
       -0.04299362137894959 -0.39966479425366613
000010 cc d8 93 35 80 a6 63 bf b0 5a 3f 6a 8c 59 ea 3f
       -0.0023987297141686344 0.8234312129159971
000020 e7 a5 95 1e 6e d3 dc bf 89 01 0b 37 ba 54 d2 3f
       -0.45040467249654487 0.2864213502434941
000030 2d 97 bc 7a ff 4d c7 3f 7b c1 41 81 74 67 e6 3f
       0.18206780903818168 0.7001287960575121
000040 dc b6 5b 6d 5d 08 d4 3f 50 b1 be 9b 41 5a ea bf
       0.31301055602567174 -0.8235176126377528
000050 ea f6 f6 19 d7 a5 d7 3f 59 28 e6 0e f3 0c e6 bf
       0.36949708495727285 -0.6890807429310924
000060 f1 5c 85 09 0b 62 e0 3f f7 eb d6 62 e5 87 dc 3f
       0.5119681535678905 0.4457944359998573
000070 c5 9e 5d 2f d9 df 6f bf 48 bb 28 30 d0 c9 e9 bf
       -0.003890918912407534 -0.8058854046447346

2.bias f8 [16]
000000 0d eb 8c 7a 23 4d ed 3f 27 6f 8f 9b bb cb ec 3f
       0.9156663316310599 0.8998697317397032
000010 f3 36 53 ca b9 90 f3 3f 00 00 00 e0 fa 36 bf bf
       1.222833433468108 -0.12193267792463303
000020 00 00 00 00 00 00 00 00 79 65 3e b8 ef 94 dc 3f
       0.0 0.4465903567557557
000030 22 65 b1 97 05 8b f2 3f 13 f2 86 eb 61 1e d6 bf
       1.1589408803468548 -0.34560440064140713
000040 81 39 5c c0 6f 06 dc 3f ad f7 68 ef 23 82 f8 3f
       0.43789285454922583 1.5317725517229335
000050 04 82 b2 84 41 1e f0 3f 10 9e 33 24 c5 ef e7 bf
       1.0073867019165172 -0.7480188090384576
000060 2f fd c5 9c 46 ca b4 bf 64 3e a6 dd b1 25 b6 bf
       -0.08121148421740963 -0.08651267682420777
000070 16 08 f0 37 1f a9 ea 3f cd cd 1f 3c 6b 37 e6 3f
       0.8331447689563471 0.6942650007535406

4.bias f8 [16]
000000 35 30 11 ba a7 6c d4 3f 01 05 d7 bc 4f 34 e5 bf
       0.31913178606623954 -0.6626356781272592
000010 75 01 91 d8 5f 6c f5 3f 96 0b 3d bd e2 ac f2 3f
       1.3389585933328736 1.1672084228636996
000020 45 60 d1 9f 74 44 fa 3f 56 7f 6f 70 f7 0e ed 3f
       1.6417127840886832 0.9080769725805833
000030 bc a7 44 c0 3c e0 ba 3f 0e ea a3 51 6e b7 f2 3f
       0.10498408979461166 1.1697829426835855
000040 43 83 b7 51 66 97 ea 3f 84 fc 09 5d 08 6e fd 3f
       0.8309814067871247 1.83936344474185
000050 8f 32 08 86 00 af d9 bf 96 f9 c2 17 45 3d f3 3f
       -0.4013062771707973 1.2024584701717678
000060 00 00 00 e0 f2 a1 c4 bf 01 62 93 3b fd 13 fc 3f
       -0.16119228303432465 1.7548801734138808
000070 b5 61 4a c0 cc 73 e5 3f f9 33 f3 b2 40 1c f3 3f
       0.67038571888684 1.1943976392969928

6.bias f8 [2]
000000 3d 2c 50 0f dc c4 f9 3f fe 5a b4 e4 6a 4a f8 3f
       1.6105614278956317 1.5181683477182442
