rocket-lander_with_acceleration_over_approximation/network_repairing/models/acasxu_epoch35.pt (torch, 8144 bytes, 4 tensors)

0.bias f8 [16]
000000 d1 79 14 86 fc 30 a9 bf 8b 47 f1 33 d7 47 d8 bf
       -0.04920186173170616 -0.3793848044634777
000010 c8 63 15 24 4f 9e 3a 3f 29 1f 77 ac b8 de e9 3f
       0.00040616447593816137 0.8084376686537996
000020 13 0d cf 2a 00 21 da bf 5b 88 d7 19 00 0e cf 3f
       -0.40826420002504554 0.24261475812733377
000030 c5 78 e2 70 0d be c9 3f 8f e7 c5 a5 e6 5e e5 3f
       0.20111244213052806 0.6678345906977813
000040 93 19 77 e1 41 c4 d3 3f 51 08 70 c2 f3 b5 ef bf
       0.3088535978135038 -0.9909609601602459
000050 a2 16 9a 32 89 c5 d8 3f ed dd 22 b4 8a 5f e5 bf
       0.387056636253286 -0.667912818745149
000060 cb ea 73 26 e6 a4 df 3f 4c 7c eb be bd fb da 3f
       0.49443963771015537 0.42161506313818076
000070 4c 8e d7 b5 93 85 6b bf f1 24 24 7e b1 62 e9 bf
       -0.0033595929114527464 -0.7932975257582752

2.bias f8 [16]
000000 69 7d 21 2e 79 12 eb 3f 1d be 5c 7b 88 2a eb 3f
       0.8460050488464904 0.8489420327586604
000010 7f 5d 19 f5 b2 70 f3 3f 00 00 00 e0 fa 36 bf bf
       1.215014417093556 -0.12193267792463303
000020 00 00 00 00 00 00 00 00 c2 1f 25 13 fd 2f d6 3f
       0.0 0.34667899007444813
000030 17 b9 81 7e 71 68 f2 3f dd 22 dd 17 23 10 d5 bf
       1.1504988614720497 -0.3291099293751765
000040 76 50 01 fa 8a ce db 3f 2b c5 e3 98 ba 69 f8 3f
       0.43448137678684107 1.5258127186064694
000050 6d 62 59 44 f7 e6 ef 3f 8c d6 87 22 fc f4 e7 bf
       0.996944077963304 -0.7486553835321543
000060 f8 a0 d3 2a 9f 3f a5 bf 64 3e a6 dd b1 25 b6 bf
       -0.04150102041040954 -0.08651267682420777
000070 18 ac 91 29 5b 42 ea 3f e0 d0 40 67 2b b8 e6 3f
       0.8206001102347527 0.709981633821851

4.bias f8 [16]
000000 95 8a aa 88 f1 4b d6 3f 4d cc 6e ab 4e 9a d2 bf
       0.3483852228766094 -0.29066817037091114
000010 13 9e 08 9d e8 3e f5 3f dc 6a a7 7b e7 71 f2 3f
       1.327858556187384 1.1528086500390406
000020 50 00 a6 c9 04 2f fb 3f fb 9f f6 7b ae 47 da 3f
       1.6989791752712513 0.4106250963764066
000030 6d 9e 0f 7d 35 a6 c1 3f 51 9b 8d 49 b2 84 f2 3f
       0.13788479429716763 1.1573965905351609
000040 da 2a 0c e3 27 7d e1 3f d6 30 c4 d5 8d 2b fe 3f
       0.5465278086206482 1.8856333112953982
000050 26 00 f8 78 7b 66 d9 bf 55 6e c2 b9 08 df f2 3f
       -0.3968800240836593 1.1794516807775797
000060 00 00 00 e0 f2 a1 c4 bf 40 2c 29 f6 1e d1 fb 3f
       -0.16119228303432465 1.7385549178750495
000070 f0 71 3b e0 a4 13 e9 3f 06 1d fa f6 25 c1 ef 3f
       0.7836479548964785 0.9923276733178745

6.bias f8 [2]
000000 80 7e 25 02 fc b0 fb 3f ee 9b 72 95 73 27 f7 3f
       1.7307090839239265 1.447131713657423
