rocket-lander_with_acceleration_over_approximation/network_repairing/models/acasxu_epoch159.pt (torch, 8144 bytes, 4 tensors)

0.bias f8 [16]
-0.04761831137093298 -0.39549349098635744 -0.00037972769082898734 0.8177739838706175 -0.4340407837700883 0.27240572404346225 0.18546908919078262 0.6854218860750039
0.311226802906169 -0.8540085617124846 0.37029748272219043 -0.6829151681231466 0.5066105429328538 0.4308865954310542 -0.0023561732901769225 -0.8013444810230467
00000000: 41cc 0e64 6d61 a8bf 404e 64ee c34f d9bf
00000010: fb7a 7403 c6e2 38bf 4ece 8758 342b ea3f
00000020: 1f0e dbfe 52c7 dbbf bba1 006b 186f d13f
00000030: 0f25 3f7c 73bd c73f f4f3 14e1 f9ee e53f
00000040: 76b8 07d3 23eb d33f 4ee4 61c3 0954 ebbf
00000050: c64e 8536 f4b2 d73f 0d00 21e9 70da e5bf
00000060: ba92 3650 2736 e03f 7550 ea5e a593 db3f
00000070: 355a 33e7 404d 63bf d95e 5a2e 9da4 e9bf

2.bias f8 [16]
0.8994238562510902 0.883910021721023 1.2185640441715464 -0.12193267792463303 0.0 0.40294007416304695 1.1535572850282425 -0.3502611412006171
0.4378767096264959 1.5290462180955433 1.002303898468207 -0.7398314257555951 -0.051058983272014545 -0.08651267682420777 0.8246816609804634 0.6970772584036012
00000000: 81e6 fa89 14c8 ec3f 0cc0 7cab fd48 ec3f
00000010: cdc5 dc02 3d7f f33f 0000 00e0 fa36 bfbf
00000020: 0000 0000 0000 0000 69cc 312a c5c9 d93f
00000030: 4224 d47b f874 f23f df0a a1b4 ad6a d6bf
00000040: 27a8 e108 2c06 dc3f 7baf cc2a f976 f83f
00000050: 2530 09d0 6f09 f03f f28b 45f4 b2ac e7bf
00000060: 2300 a42e 6724 aabf 643e a6dd b125 b6bf
00000070: a1b4 70cb ca63 ea3f 331f 74f7 744e e63f

4.bias f8 [16]
0.3468867122905178 -0.5243183656888553 1.3366836249824088 1.1592063362309528 1.6614856064051975 0.7370949571575296 0.12054745051597086 1.1633331675644505
0.7132512735658005 1.8551809557927288 -0.4013062771707973 1.1948599847784143 -0.16119228303432465 1.7482920005238494 0.7209130701963304 1.1075509866256759
00000000: 621a 2d53 6433 d63f f86c 2a4f 37c7 e0bf
00000010: ec5e 665e 0e63 f53f c5d8 76f1 1b8c f23f
00000020: 928f 64ee 7195 fa3f 3438 e129 4896 e73f
00000030: db0f 959d 32dc be3f 96a9 503d 039d f23f
00000040: 6e74 b955 f4d2 e63f 2eab d439 d2ae fd3f
00000050: 8f32 0886 00af d9bf efc1 de80 251e f33f
00000060: 0000 00e0 f2a1 c4bf cbbb 6108 01f9 fb3f
00000070: f411 7849 b811 e73f 635b 2362 87b8 f13f

6.bias f8 [2]
1.6536399542706754 1.489293017034869
00000000: 4a39 2f2b 4f75 fa3f 0637 25ea 24d4 f73f
