rocket-lander_with_acceleration_over_approximation/network_repairing/models/acasxu_epoch14.pt (torch, 8144 bytes, 4 tensors)

0.bias f8 [16]
0	0xbfa22abf97d7741a	-0.035482394490579064
1	0xbfd908217922e1dd	-0.39112126188004287
2	0x3f4e4fc85153ce76	0.0009250381578155959
3	0x3fea113ea09bea93	0.8146050583739729
4	0xbfd4f6b57fd49afe	-0.32755792125173844
5	0x3fccdb9079990926	0.22545057237045646
6	0x3fc8a1305312d2c5	0.1924190908081497
7	0x3fe502b0869746a0	0.6565783146599706
8	0x3fd3f110e8b60e9a	0.3115885040826726
9	0xbff18a9dc4b485d9	-1.0963418659015274
10	0x3fd79c2f2938162d	0.3689077284364853
11	0xbfe5ad9007cae97a	-0.6774368431281765
12	0x3fe01d1fbf3cce7c	0.5035551772220539
13	0x3fdb95ecbbbfe796	0.4310256799213844
14	0xbf6d798a686c11f3	-0.0035979941634443013
15	0xbfe932a20d18564b	-0.7874307876360914

2.bias f8 [16]
0	0x3fe8884ca06e952e	0.7666381009518426
1	0x3feb01e22f6d9414	0.8439799238518639
2	0x3ff37c2e48b071a3	1.2178175773070528
3	0xbfbf36fae0000000	-0.12193267792463303
4	0x0000000000000000	0.0
5	0x3fd62185aea1f28e	0.34579603246656
6	0x3ff27fdb99937b72	1.1562152861658572
7	0xbfd7646e4605f336	-0.3655048068829275
8	0x3fdc479459b996c4	0.44186886560633476
9	0x3ff853d7cbd5bd12	1.5204694711972633
10	0x3ff0220d21e7a0a8	1.0083133053213178
11	0xbfe95f8d3600c501	-0.7929140143152439
12	0xbf9e4e41b133b21b	-0.02959540027670658
13	0xbfb68e886053f2b4	-0.08811237670665656
14	0x3feaf6e5d0df07d8	0.842638881637181
15	0x3fe6d46dc4e3e69a	0.7134312482368899

4.bias f8 [16]
0	0x3fd5a01f2c0acf1a	0.3378980569934683
1	0xbfcaadaac26d4eef	-0.20842489713196907
2	0x3ff51cac9893c018	1.319500537876598
3	0x3ff246a0457639fd	1.1422426904060778
4	0x3ffb7c7595ce18a4	1.7178855754623692
5	0x3fded33b6c846d88	0.4816425857295248
6	0x3fc65ee7de066c3d	0.17477129307812503
7	0x3ff26aa97fd117e6	1.1510405533640493
8	0x3fe03b90c574ff07	0.507271180780635
9	0x3ffe5c9a03cab7b5	1.8976078174705269
10	0xbfd906961f8ea419	-0.39102700311429
11	0x3ff2b1a3749926d8	1.1683687739008999
12	0xbfc4a1f2e0000000	-0.16119228303432465
13	0x3ffbafddd1995776	1.7304361522160128
14	0x3feb1e4100a5ea09	0.8474431049974679
15	0x3fee63d2d17493f4	0.949685486881775

6.bias f8 [2]
0	0x3ffc57e27d3feb55	1.7714562313619429
1	0x3ff69cf8892d2929	1.4133229597524155
