rocket-lander_with_acceleration_over_approximation/network_repairing/models/acasxu_epoch11.pt (torch, 8144 bytes, 4 tensors)

0.bias f8 [16]
0	0xbfa241b2f0311d8d	-0.03565749341992861
1	0xbfd92dd96fa99038	-0.3934234228565887
2	0x3f4b4087c7c7038a	0.0008316672315730061
3	0x3fea0653b9c8a003	0.8132723454082228
4	0xbfd52be612d0be14	-0.33080436551515047
5	0x3fccf3fd218b8a50	0.22619594705527613
6	0x3fc91742767fb26a	0.19602232729029662
7	0x3fe5223b0a89243e	0.6604285436416217
8	0x3fd3d634f9f261f7	0.3099491539847174
9	0xbff1876fcf5b815a	-1.09556561469079
10	0x3fd7f7edd571c753	0.37450738758262964
11	0xbfe59a3a3d19b83e	-0.6750765984886653
12	0x3fe012705a1f2d95	0.5022508392516324
13	0x3fdb66edd2186942	0.42815728680729503
14	0xbf76c5c932f770cd	-0.005559717115343155
15	0xbfe92ef2cb5d9dd7	-0.7869810077654006

2.bias f8 [16]
0	0x3fe8b5f0ca106900	0.7722095438541885
1	0x3feafb8c46677b03	0.8432065367777287
2	0x3ff378fad4142282	1.2170360836336447
3	0xbfbf36fae0000000	-0.12193267792463303
4	0x0000000000000000	0.0
5	0x3fd61b918ac40e3f	0.3454326491484813
6	0x3ff27fd36247217c	1.1562074507693003
7	0xbfd7499f8f591c99	-0.36386860846364183
8	0x3fdbe6349a783b64	0.4359256275646912
9	0x3ff85101248a4477	1.5197764804218232
10	0x3ff01fe521b4cb14	1.0077868763589253
11	0xbfe949df30ec5bd8	-0.7902675586254828
12	0xbf9dd57d45497dd7	-0.029134709695766006
13	0xbfb68e886053f0c0	-0.08811237670664962
14	0x3feae23ae26e7e7a	0.8401159689419295
15	0x3fe6c7776ca48ba8	0.7118489381722286

4.bias f8 [16]
0	0x3fd5924ad2b80e10	0.3370539720346821
1	0xbfc9f2bd48faa2a8	-0.20272031844549088
2	0x3ff51de2fc2ce49e	1.3197965479469427
3	0x3ff24833ae9d270f	1.1426274128775196
4	0x3ffb743c6816de8b	1.7158779207219677
5	0x3fdd883d05820b7c	0.4614403299130385
6	0x3fc5f17caa2ae1fe	0.17143209752045147
7	0x3ff269de3e6d0c24	1.1508467138780896
8	0x3fe030ebf60d64c3	0.5059718900403357
9	0x3ffe5574d4f7f4d3	1.895863372715486
10	0xbfd90066f2fceea0	-0.39064954499529314
11	0x3ff2b1f7548cd084	1.1684487631546583
12	0xbfc4a1f2e0000000	-0.16119228303432465
13	0x3ffbb1a2fb162c03	1.7308683212347666
14	0x3feaf0e850445139	0.8419076507293887
15	0x3fee6aea5598e52b	0.9505511924573161

6.bias f8 [2]
0	0x3ffc481afec96e86	1.7676038696871799
1	0x3ff6a6eaba4c2995	1.4157511975523438
